checkpoint_critic_b.pth (torch_old, 189892 bytes, 9 tensors)

fcs1.weight f4 [256, 48]
000000 8b 26 67 be 97 c7 dd bd e2 33 42 bc ea 0d 18 be
       -0.22573297 -0.10829084 -0.01185319 -0.14849058
000010 ad ca ce bd dd c0 1a 3f 80 f7 2b 3d ed ff 3c be
       -0.10097251 0.60450536 0.04198408 -0.18457003
000020 7a 50 97 3d fa c3 3f be 77 fa 64 3c e2 98 8b be
       0.073883966 -0.18727103 0.013975731 -0.27265078
000030 d5 17 3b be f2 79 b4 3f 56 02 4c bc b5 f4 93 be
       -0.1827081 1.4099715 -0.012451729 -0.28897634
000040 b0 c8 f5 3e 0e 10 d0 be e5 14 5c 3d d4 25 85 be
       0.48004675 -0.4063725 0.053730864 -0.26005423
000050 88 98 31 bf cb 1a 01 40 f9 a0 96 3d 0e ed 87 be
       -0.6937337 2.0172603 0.07354922 -0.26548046
000060 02 4c eb bd 36 a1 48 be 06 a8 f2 bc 81 ae 89 3c
       -0.11489107 -0.19592747 -0.029621135 0.016806843
000070 3f d3 d1 3d 84 e5 12 3f be ce ac bc 64 35 18 3c
       0.1024537 0.57381463 -0.021094676 0.009290073
000080 fa 3d 40 3d 69 8c 3d be 81 1a 25 b5 54 0f 92 3c
       0.046934105 -0.18510593 -6.150586e-07 0.017829575
000090 56 68 bd 3d ce 81 b1 3f 70 ef 18 3c ef 74 ed 3c
       0.09248416 1.3867738 0.00933443 0.028986422
0000a0 83 65 d9 bd 40 c0 c8 be 8c ff c9 3a 34 21 ce 3e
       -0.10615065 -0.39209175 0.0015411242 0.40259707
0000b0 26 54 36 3f 00 8e 01 40 6d ca 89 3c 23 93 d6 3e
       0.7122215 2.024292 0.016820157 0.4190913
0000c0 50 55 59 be 10 e0 99 3e d4 28 04 be 80 ea 47 3f
       -0.2122395 0.3005376 -0.129062 0.78092194
0000d0 c2 ec bd 3d 3b 20 1d bf 16 fb c1 bd 2a d4 54 3f
       0.092736736 -0.61377305 -0.09471719 0.83136237
0000e0 f3 ec 2b be af e0 b6 3e d2 7f 35 bd d3 45 c1 3e
       -0.16789608 0.35718295 -0.044311352 0.37748584
0000f0 34 c4 4b 3e 7b e8 b0 be 90 4b 5c bd 18 04 a6 3e
       0.19899064 -0.3455237 -0.053783 0.32424998
000100 e2 b9 a0 bd ce 1d d5 3e 64 f5 44 be 60 9e 2f 3e
       -0.07847954 0.41624302 -0.19234234 0.17150259
000110 15 96 05 3c e2 38 47 3e 2e 00 69 be fa 78 d1 3d
       0.008153458 0.19455293 -0.22753975 0.102281526
000120 29 42 c1 bd a8 65 f7 bf 29 b2 05 3c 63 83 67 3e
       -0.09436447 -1.9327898 0.0081601525 0.22608714
000130 2f 04 4b bd ff ae 30 bf 46 a2 2c 3c 0c 0f e4 3d
       -0.049564537 -0.6901702 0.010536736 0.111356825
000140 27 4b d8 bc 80 bc f5 bf 25 0d 21 be f5 89 f7 3d
       -0.026403023 -1.9198151 -0.1572767 0.1208686
000150 26 8c 3c be 99 f9 af be fd 25 16 be 47 8c 58 3e
       -0.18412837 -0.34370115 -0.14662929 0.21147262
000160 52 9b b2 3e 3e c2 bb bf 47 92 90 bd 3d b2 83 3f
       0.34884125 -1.4668653 -0.0705915 1.0288769
000170 35 bb c5 ba cc 1f 4b 3e 2f 6b 17 bd 56 10 82 3f
       -0.0015085699 0.19836348 -0.036967453 1.0161235
000180 21 e3 e5 3e fe c6 6c bf d7 e4 0e 3e 78 6d 13 3e
       0.44899848 -0.9249114 0.13954483 0.14397228
000190 e2 3f dc be 69 c2 c5 be 56 9c c6 3d 72 95 27 3e
       -0.4301749 -0.38624886 0.096977875 0.16365603
0001a0 22 1e a2 3e 93 4c 61 bf ce 69 09 3e 83 c6 80 3e
       0.31663615 -0.8800747 0.13419268 0.25151452
0001b0 8e 4b 97 be c1 96 22 bf 36 89 3c 3e f6 d0 90 3e
       -0.2954983 -0.6351128 0.18411717 0.28284425
0001c0 be 03 c3 bc cb 6c 46 bf 2b 4d d8 3e 93 0b ed 3e
       -0.023805495 -0.77509755 0.42246374 0.46297893
0001d0 bf f9 38 be e6 15 51 bf 44 42 f8 3e 25 8c cd 3e
       -0.1806402 -0.8167404 0.48488057 0.40145984
0001e0 70 35 22 3d 32 9f 61 3f 88 6e 1f bc 8f 7d 4a be
       0.039601743 0.8813354 -0.009730943 -0.1977446
0001f0 03 f2 dd 3e f5 79 db be 86 83 97 bd b5 d9 72 be
       0.43348703 -0.42866483 -0.07398133 -0.23715861
000200 e2 d5 e1 bc ac 21 5f 3f b4 df 0e be 6d f3 d0 bd
       -0.027567808 0.87160754 -0.13952523 -0.1020268
000210 8a c2 7e 3e 8a e3 29 bf 75 50 e7 bd e1 24 22 be
       0.24878898 -0.6636282 -0.11294643 -0.1583438
000220 ec 6e 51 be 16 c5 4e 3f 68 4d 38 3d ae 4e 0e be
       -0.2045247 0.8076948 0.044995695 -0.13897201
000230 fc b3 bc 3d b6 d8 38 bf 6e 67 b2 3d 11 59 c7 bd
       0.09214017 -0.72205675 0.08711134 -0.09733785
000240 e0 38 3b be 19 be 2b 3f 73 7b 2e 3c 56 32 2c 3e
       -0.18283415 0.6708694 0.01064955 0.16816077
000250 04 fb 04 3f 5c 6d 76 3e 64 49 84 3c 48 98 88 3d
       0.5194552 0.24065155 0.016148277 0.0666967
000260 4f ab 6b bd e4 fe 45 3f 90 ee 73 3c 58 d9 23 3d
       -0.05753642 0.7734206 0.014888421 0.040002197
000270 7c 1b 25 3f 54 28 f4 3e b1 36 90 3c 1c 3c c7 3d
       0.6449506 0.47687018 0.017604204 0.09728262
000280 0c 07 0b 3d 01 05 10 3f 1f e7 2b bc 8f 4c b7 3d
       0.033942267 0.56257635 -0.010492115 0.08950149
000290 c9 4b 4f 3f 04 a6 a2 3f 7f dd db 3b 75 17 e9 3d
       0.80975014 1.2706914 0.006709754 0.11381427
0002a0 5e 2f 65 3c 54 0a d2 3e 91 7c 9c bc 51 6d df 3d
       0.013988344 0.41023505 -0.019102367 0.10909522
0002b0 f7 54 1e bf 24 5e 68 3e 8a ec 05 bd ba b0 95 3d
       -0.61848396 0.22692162 -0.032696284 0.073090985
0002c0 94 dc 3a 3d 92 80 11 3f 30 05 32 3c 1f 62 0d 3a
       0.045620516 0.5683681 0.010865495 0.00053933443
0002d0 ed 25 0e bf e5 0c d4 3e 29 18 2d 3d 14 93 1a 3d
       -0.5552662 0.41416088 0.04225937 0.03773792
0002e0 c7 fd e6 bd 1d 90 4a 3e 1b ac 51 bb dd 97 87 3c
       -0.11278873 0.19781537 -0.0031993452 0.016551906
0002f0 38 1d 5a bf 1c 75 9c 3f ea 28 1a 3d 88 51 0f bd
       -0.85200834 1.2223239 0.037636675 -0.034989864
000300 ad 42 ce 3d bc 20 81 bd 8f 3e e8 bd 24 cf 28 3f
       0.10071311 -0.06305072 -0.11340057 0.6594107
000310 74 8b 95 be ff ff 8b bc dc cc fa bb b7 af 1a 3f
       -0.29207957 -0.017089842 -0.0076538157 0.6042437
000320 a3 38 c1 3e c0 10 dd bd 0b 4a ff 3e 1e f4 b8 3e
       0.37738523 -0.107942104 0.49861178 0.36123747
000330 f7 cd 39 be c7 8e 91 be 54 08 11 3f e2 51 8e 3e
       -0.18144976 -0.28429243 0.5665333 0.27796847
000340 7c 41 89 3e 12 f4 47 be ee f6 8e bd 15 ea 8e 3c
       0.26807773 -0.19526699 -0.06980692 0.017445603
000350 d3 4a 0b 3c ae ed 40 bf b3 ea 97 bd c3 15 d4 3c
       0.008501726 -0.7536267 -0.07417812 0.025889283
000360 45 b0 f7 be c3 4d 04 3f b0 72 9d 3d e1 3c 25 bf
       -0.4837667 0.51681155 0.076878905 -0.6454602
000370 8e f1 a3 3e c2 d5 c7 3c 56 f9 9b 3d a0 01 27 bf
       0.3202023 0.02439392 0.076159164 -0.65236855
000380 82 0b c1 be 80 58 bd 3e 89 e9 c6 3d b8 89 e7 bc
       -0.37704092 0.36981583 0.09712512 -0.028263912
000390 04 6f 0d 3e a5 d7 9d be ee 80 ee 3d c7 4a 0b be
       0.1381188 -0.30828586 0.11645685 -0.13602744
0003a0 57 06 d2 be 6f f8 8f 3e e1 ae 11 3c 10 e1 af be
       -0.41020462 0.28119227 0.008891792 -0.34351397
0003b0 6e 28 82 bc 27 99 3b bf e5 a5 72 3d 86 31 91 be
       -0.015888419 -0.73280567 0.05924024 -0.28358096
0003c0 ab 0e b2 be c7 35 c2 3e be af 32 3e 64 8d b5 bd
       -0.34776816 0.37931654 0.17449853 -0.08864859
0003d0 29 aa 92 3e 00 48 71 be b3 19 1a 3e 2c fd 11 bd
       0.28645447 -0.23562622 0.15048866 -0.035641834
0003e0 7f 69 fa be a1 b2 ae 3e 1c 49 4a 3d ae fa b9 3e
       -0.48908612 0.34120658 0.04938613 0.36324066
0003f0 29 7d 39 3e 88 10 f4 3c 9c 27 d8 3d 68 4a b9 3e
       0.18114151 0.029793039 0.1055443 0.3618958

fcs1.bias f4 [256]
000000 fe 77 74 3c 7f a3 93 3c b6 99 42 bb c9 81 e3 bd
       0.0149211865 0.018022297 -0.002969367 -0.11108739
000010 27 32 35 bd 6c 02 06 3d bb 8c 88 bd 4a d6 0c 3e
       -0.044237282 0.032717153 -0.06667467 0.1375362
000020 bb c5 c9 bc c7 85 0a bd 95 8b a1 bd 8a 94 96 3d
       -0.024630418 -0.033818986 -0.07887951 0.0735255
000030 df b9 0e 3e 6d b0 02 3e b3 19 06 be dd 64 4e bc
       0.13938092 0.12762614 -0.13095741 -0.01259729
000040 bd fb 00 bd ed db 13 bd 25 2d 05 be 82 a4 13 3e
       -0.031490076 -0.03609841 -0.13005503 0.14418224
000050 d4 5c ef 3d 9c 07 d0 bd e6 59 ba 3d be 55 2e bd
       0.116876274 -0.101577014 0.09099178 -0.04256224
000060 c8 d4 06 3e 2c 17 8c bb a9 57 9a 3d 2e 38 13 bc
       0.13167107 -0.0042752232 0.07536251 -0.008985562
000070 b5 c4 2f bd e9 c0 08 be 59 ee dd bd ad 9a 0b 3e
       -0.042912204 -0.1335484 -0.10836477 0.13633223
000080 49 1f 09 3e 69 f8 0d 3e 6f 9f d6 3d 7f 34 05 be
       0.1339084 0.13864292 0.10479628 -0.13008307
000090 d0 ed bc bd 6d 6e 01 3d 15 99 08 be b9 fd b5 bb
       -0.09225047 0.03159945 -0.13339646 -0.0055539277
0000a0 2a bd 40 3d 97 a9 38 bd 3c c6 cb 3c 1e f4 24 3c
       0.0470554 -0.04508361 0.024874799 0.010067968
0000b0 b9 5b 63 bd 12 da 8d 3c 2e 2e f9 3c 8e 59 f7 bd
       -0.055507395 0.017315898 0.030417528 -0.12077628
0000c0 9c 44 08 3e b1 be 12 3e 92 df f2 bd 31 9b 0d bd
       0.13307422 0.14330555 -0.11859049 -0.03457183
0000d0 e0 1b 83 bb fe 3a a2 ba e4 b1 50 bd d3 40 1d 3c
       -0.0040011257 -0.00123772 -0.0509509 0.009597975
0000e0 84 28 2f 3d 12 e0 31 3d 4d 96 a6 3d af 49 e0 3c
       0.042763248 0.04342658 0.08134136 0.027378885
0000f0 ae 40 49 3d a0 51 9e bc 2f 35 1b bd aa 48 88 3d
       0.04913395 -0.019326031 -0.037892517 0.066544846
000100 bc db e8 3d 24 dd c5 3a 83 43 e5 bd 09 77 3e 3d
       0.11370036 0.0015095812 -0.111945175 0.04650024
000110 0f 3d e8 bd 44 4a 3f 3d a2 f0 0c 3e a0 fc c7 bd
       -0.11339771 0.046701685 0.13763669 -0.09764981
000120 74 87 a3 bc b9 76 0a 3e ac e3 6e 3d 61 3c 0d 3e
       -0.01996205 0.13521852 0.058322594 0.13792564
000130 cc 66 8b bd 48 e9 84 bc 85 77 ca bd e8 5d a0 bd
       -0.06806716 -0.016224518 -0.09886078 -0.07830411
000140 ba 26 fe 3c 49 6d ef 3d d7 1d 04 3e 5b 2f 5c bd
       0.031024326 0.11690766 0.12902008 -0.0537561
000150 cf b6 fa 3d a6 db d2 bd b1 6e 0a be b8 fc 9b 3c
       0.12241899 -0.10295801 -0.13518788 0.019041404
000160 66 b2 09 3e 38 1f e2 3d e1 af d7 bd 29 95 f6 bc
       0.1344696 0.11041111 -0.10531593 -0.030100422
000170 46 c6 02 3e ac 95 9a 3d 52 9b 48 3b ac f2 83 bd
       0.12770948 0.07548079 0.0030610156 -0.0644277
000180 4f 2c bb 3d 9e a8 f9 3d dd e0 be 3d 81 88 78 3d
       0.091393106 0.12190364 0.09320233 0.060677055
000190 50 9f 85 bd d5 9b 0f be c7 2c 05 3e a4 2b 0a 3d
       -0.06524527 -0.14024289 0.13005362 0.033733025
0001a0 a4 13 95 3c c4 a4 5d 3d 06 fa 5e bd 44 40 d6 bd
       0.018197842 0.05411221 -0.05443766 -0.104614764
0001b0 ea 58 a1 3d 00 9d 8e bc c1 6d 0d be 39 9b dd bc
       0.07878287 -0.017408848 -0.13811399 -0.027051555
0001c0 ab b3 b1 bc cd cf d7 bd a5 fb e9 bd fc b4 08 bd
       -0.021692118 -0.10537682 -0.114249505 -0.033375725
0001d0 77 8f f5 bd 97 30 96 3d 97 bf 0e be 41 2c 86 bd
       -0.11990254 0.073334865 -0.13940273 -0.065514095
0001e0 c0 1d d7 bd e1 29 52 bd 82 a1 12 be d0 a2 25 bd
       -0.10503721 -0.05130947 -0.14319423 -0.040438473
0001f0 1d 0d c4 bd c8 b9 b5 3d 20 f4 f6 bd ab ab 0a 3e
       -0.09572814 0.088733256 -0.12058282 0.13542049
000200 69 0a 0b 3e 02 9c 1b 3d 79 4e 56 bc 57 1d af bd
       0.1357819 0.037990578 -0.013080233 -0.08550518
000210 f5 67 83 bd 88 00 c8 bd 4b d6 b2 3c 52 2b 0c 3e
       -0.064163126 -0.09765726 0.021830698 0.136884
000220 02 c2 45 bd 5b 66 75 bd 22 45 03 3d a6 55 0a be
       -0.048280723 -0.059912067 0.032048352 -0.13509235
000230 bf ef 48 bd d1 a7 cd bd d8 a9 d4 bd 8b 77 32 bd
       -0.049056765 -0.10041774 -0.103839576 -0.043571036
000240 0c 8d e5 3d fa 86 7b 3d 26 67 24 3d b8 5f f6 3d
       0.11208543 0.06140802 0.040137433 0.12029976
000250 bf 96 ac 3d 4f c7 df ba a6 79 12 3d 21 28 a3 bc
       0.0842719 -0.0017072948 0.035760544 -0.019916596
000260 f5 8c 90 3d 03 93 04 3d 18 1e 6c 3d 06 46 0a be
       0.070581354 0.032366764 0.057645887 -0.13503274
000270 1d 46 a0 bc 05 2b 9d 3d 36 4a 5d 3d 6a 49 13 3d
       -0.019564683 0.07674221 0.05402585 0.035958685
000280 35 69 70 bd 57 71 bf 3d f7 24 fd bc 75 70 a0 bd
       -0.058694083 0.0934779 -0.030901415 -0.078339495
000290 bc 19 d3 bd de ae a6 3a 0a 6b e9 bd 43 df b8 3d
       -0.10307643 0.0012716909 -0.11397369 0.09026959
0002a0 dc 36 9d 3c 05 77 fa bc b5 83 ff 3d 23 50 25 bb
       0.019191198 -0.030574331 0.12476293 -0.0025224767
0002b0 40 d9 8b 3c 0f bd c1 3d 5a dd c7 3c 96 7c 3d 3a
       0.017071366 0.09459888 0.02439754 0.00072283426
0002c0 47 31 07 3e dd 01 e3 bd 5c 20 92 3d 6c eb 15 3d
       0.13202392 -0.1108434 0.07135078 0.03660147
0002d0 f6 4d b7 bc 8c 49 41 3d b6 b0 41 3c 9f d9 b7 bd
       -0.022376042 0.04718928 0.011821916 -0.08977055
0002e0 93 c2 c7 bd a4 62 94 bd da 6c 05 3e 70 d6 e6 3d
       -0.09753909 -0.07245377 0.13029805 0.112713695
0002f0 80 a2 7c bc f4 2e 95 3d 7a 02 b3 3d 9c 13 f9 3d
       -0.015419602 0.07284346 0.08740707 0.12161943
000300 b1 9a 1c 3d 21 8a e1 3d 53 51 1e bd a7 d2 f8 3c
       0.038233463 0.11012674 -0.038651776 0.030373884
000310 5f 22 b4 bd eb e3 f6 bd 25 27 00 bd b2 f5 ed bd
       -0.08795618 -0.12055191 -0.03128733 -0.11619128
000320 9f 59 44 3d 3a 2c c2 3d a7 a9 ed 3c 5d 78 0d be
       0.04793703 0.09481092 0.02901156 -0.13815446
000330 2d 1d 7b 3d 4a ef 03 3e 56 e9 bb 3c 3f d1 05 be
       0.06130712 0.1288425 0.022938412 -0.13068102
000340 36 79 f1 bc 66 79 0f 3e 38 3c a9 bd c5 09 e4 bd
       -0.029476743 0.14011154 -0.08263439 -0.11134676
000350 f7 7a da 3d f7 eb e3 3d f0 e9 de 3a 66 53 0a 3e
       0.10667985 0.11128991 0.0017006975 0.13508376
000360 63 06 ff bd ea 09 b6 3d 4e 6a 0b be 7b ba 34 bd
       -0.1245239 0.0888861 -0.13614771 -0.044123154
000370 20 44 eb 3d 0d 4d 91 bd e1 e2 dc bd cc f6 ce 3c
       0.11487603 -0.070947744 -0.10785461 0.025264166
000380 2f eb 12 3e 43 53 59 bd 49 30 03 be b7 b1 a7 3d
       0.14347528 -0.05305792 -0.12811388 0.08188193
000390 f5 fd f1 3d c3 66 bd bd ce b5 95 bd 27 74 8e 3d
       0.118160166 -0.09248116 -0.07310067 0.06955748
0003a0 24 04 05 3d cb 4e e3 bd ad bf e6 bc 64 60 d8 3c
       0.032474652 -0.11099013 -0.02816757 0.02641315
0003b0 d5 86 6e 3c df 87 da 3d 13 b3 9f 3d e6 21 77 3c
       0.014558514 0.106704466 0.077978276 0.015083766
0003c0 85 ca d1 3d 62 9b 0b be 2a c4 ca 3c 75 71 83 bb
       0.10243706 -0.13633493 0.024751741 -0.004011328
0003d0 81 30 bc bd 4d 59 d0 bc 65 d0 34 bd 0d 1a 0e be
       -0.09188939 -0.025433207 -0.044144053 -0.13877125
0003e0 aa 23 31 3c 8f 4d 13 3e 18 f9 c6 bd bb c3 87 bc
       0.010811726 0.14385055 -0.097154796 -0.016572824
0003f0 f0 fa 06 bd 17 1c a5 bd 85 25 85 3d a2 82 0d be
       -0.032954156 -0.08061998 0.06501297 -0.13819364

fc2.weight f4 [128, 260]
000000 a7 8b af be a1 3c ea bc 44 45 6a be 81 18 ca bd
       -0.34286234 -0.028593363 -0.22877985 -0.09867955
000010 cf fb 89 3e 40 2f 79 3c f8 7e 6c be 95 bf fe 3d
       0.26949927 0.015209019 -0.2309531 0.12438885
000020 3b 33 20 bf 69 68 0a bf f3 76 97 3d 9c 52 52 be
       -0.6257817 -0.5406557 0.07395735 -0.20539325
000030 bb 46 85 bd fe 35 37 3e 06 ea be be 4c f5 25 be
       -0.065076314 0.1789169 -0.3728792 -0.16206855
000040 ac f9 12 3e e7 60 ce be 76 06 e1 be ee ec 15 bd
       0.14353055 -0.40308306 -0.43950242 -0.036602907
000050 8f 80 fc be d2 24 7a bd bd bc 7f 3e 36 1b b0 3e
       -0.49316832 -0.06107027 0.24974342 0.3439576
000060 33 80 2d 3e e4 c6 92 bd e9 d3 3b 3e 84 7b 6b 3e
       0.16943435 -0.071668416 0.18342556 0.22996336
000070 bc 2f 7e 3e b5 bb 29 bf f0 d5 e0 bd 27 2b 08 3e
       0.24822897 -0.66302043 -0.10978305 0.13297711
000080 6a 2a 79 bc b0 e7 a3 3d ce 83 90 3e b4 1d 92 3d
       -0.015207866 0.08003175 0.2822556 0.07134572
000090 85 e2 11 bd 93 c3 a2 be 67 42 8d be d1 7e fe be
       -0.035616416 -0.31789836 -0.27589723 -0.49706128
0000a0 6f 36 88 bd dd 9a 74 be 98 7d 3d bf a2 25 a9 3d
       -0.066510074 -0.238872 -0.74019766 0.08259131
0000b0 0a 2f 0b 3f e9 bf 77 bf ba 74 8d be 39 19 31 be
       0.5436865 -0.96777207 -0.27628118 -0.17294778
0000c0 19 81 9d be 2a ba 13 3e 6d 00 d7 3e 93 28 2e bf
       -0.30762556 0.14426485 0.41992512 -0.6803066
0000d0 bb 51 c1 3e f4 11 bf be 15 69 be bd 84 17 21 bd
       0.37757668 -0.37318385 -0.092973866 -0.039329067
0000e0 27 7a 9f bc 2d 90 49 be 79 0d cd 3b 10 d9 06 be
       -0.019467426 -0.19683905 0.0062577096 -0.1316874
0000f0 bb d3 9c be 1e 3b 75 be c9 25 91 be 61 a0 07 bf
       -0.30630288 -0.23948333 -0.2834914 -0.52979094
000100 a5 72 f7 be 49 8a 52 3e 85 1a 99 3e a0 f0 bf 3c
       -0.48329654 0.20560564 0.29903045 0.023430169
000110 50 6c b9 be 5c 75 43 3e 6d d8 39 3e f1 24 71 be
       -0.36215448 0.19087738 0.18148966 -0.23549248
000120 a0 d6 ae be df 38 bb 3e f9 39 9c bc 37 34 e7 bd
       -0.3414812 0.36566827 -0.019070612 -0.11289256
000130 2f d8 73 3d d6 c9 48 3e 5c 08 9f 3e 5a b5 f9 3d
       0.05953234 0.19608244 0.31061065 0.12192793
000140 01 17 a5 be 8b bf 17 bf 5f da 66 3e 2b 95 24 3d
       -0.32244113 -0.59276646 0.2254424 0.04018132
000150 c8 7c a5 be ef 1d 2c be 2e b7 de be 80 48 7d be
       -0.32321763 -0.16808294 -0.4349913 -0.24734688
000160 cb f4 e8 bd 7c 91 d9 be f4 26 86 3d 41 2c 0d 3e
       -0.113748156 -0.42493808 0.065503985 0.13786413
000170 4d 90 38 3c 3e f1 a0 3b 0f 4f b0 be d0 23 08 be
       0.011264873 0.004911571 -0.34435317 -0.13294911
000180 de 34 89 3e 40 2a 82 be 68 ba 94 be 3d 3d a5 be
       0.26798147 -0.2542286 -0.29048467 -0.32273284
000190 5f 88 87 be 64 a1 95 be bf ec 22 bf 04 96 33 3c
       -0.2647123 -0.29224694 -0.63642496 0.0109610595
0001a0 8e 1a a7 be cc 4a 81 3e 3b 4c 1f be 5a 8e f0 be
       -0.32637447 0.25252378 -0.15556423 -0.46983606
0001b0 9f f4 c3 3e 37 9d 2a 3d a0 e6 94 3e f9 bc e0 be
       0.3827257 0.041653838 0.29082203 -0.43894175
0001c0 f6 e8 c4 3d 71 e8 2f 3e e8 07 0e be 56 85 ae bd
       0.09614746 0.17178513 -0.13870203 -0.085215256
0001d0 37 b0 75 3e 8c ea 27 bf a4 5d ef 3e 72 74 1b be
       0.23993002 -0.65592265 0.4675113 -0.15181139
0001e0 3f 91 86 bd 4c ef 62 be 21 5c da bc c0 10 c0 be
       -0.06570672 -0.22161597 -0.026655259 -0.3751278
0001f0 d8 ba cd bd 18 7f 29 bf 0f 9d 61 bf b7 d9 b7 3e
       -0.10045403 -0.66209555 -0.8813028 0.3590829
000200 80 30 d6 3e 6e 3c 61 bd c0 1d 45 be d0 3d 23 bf
       0.41833878 -0.05498927 -0.1924963 -0.63766193
000210 85 4f 1f bf 5a b1 be bd 06 3f 38 3d 57 3b 2e be
       -0.6223071 -0.09311171 0.04498198 -0.17014824
000220 15 42 58 3e ec 81 3e bd 76 af 7b be 03 41 39 be
       0.21118958 -0.046510622 -0.24578652 -0.18091206
000230 05 51 06 bd 0d 23 a4 be fc 20 35 38 d1 41 97 be
       -0.03279211 -0.32057992 4.3184482e-05 -0.295424
000240 53 f4 f7 be d5 6b b7 3d 7f 14 0a bf 53 ef e3 bc
       -0.48428592 0.08956114 -0.53937525 -0.02782408
000250 96 1f 50 be 24 f5 a7 bd e4 16 1b bf 99 2e a8 be
       -0.20324549 -0.08201054 -0.60581803 -0.3284805
000260 a4 7a 69 3d e0 83 a3 bd 1b d8 09 3e 3a fb 80 bd
       0.057001725 -0.079841375 0.13461344 -0.06297918
000270 4a ce ee bd 05 19 14 be a2 eb ac 3e a8 a7 75 bf
       -0.1166044 -0.14462669 0.33773524 -0.9595895
000280 60 c7 58 3e f9 f9 1e be 56 eb c0 3d 49 16 eb 3d
       0.21169806 -0.15525045 0.09419887 0.1147886
000290 e9 a8 9f 3e d4 df 17 3e 0f 61 b2 3e ad 24 32 bf
       0.31183556 0.14831477 0.34839675 -0.6958721
0002a0 db 99 9f bd da 40 86 be 93 1f d7 bd 6a 51 a6 bd
       -0.077930175 -0.26221353 -0.10504069 -0.08120997
0002b0 59 b6 b6 bc 23 86 14 be a8 04 8d bd 31 1b fc 3e
       -0.022303747 -0.14504294 -0.06885654 0.49239495
0002c0 7c d7 3f 3e 68 44 15 be 87 69 d7 be a2 87 3d be
       0.18734545 -0.14576876 -0.42072698 -0.18508771
0002d0 39 8d bb be ad 68 2f be 02 02 1e bc 81 3a fb be
       -0.36631182 -0.17129774 -0.009644033 -0.49068072
0002e0 c6 7b 5c bf 8c 91 43 3e 48 ef 6a bd b2 1c d0 be
       -0.86126363 0.1909849 -0.057357103 -0.40646893
0002f0 d8 d7 e8 be cd 72 f9 be 5e 7e 8a be 98 d6 fd 3d
       -0.45477176 -0.487204 -0.27049536 0.12394446
000300 a2 c7 cb 3e 74 a2 68 be 4e 73 90 be 02 d0 b6 3e
       0.39800745 -0.22718221 -0.2821297 0.35705572
000310 72 02 b3 3e db de a3 be c2 f1 b9 be ec ae 8d 3d
       0.34962803 -0.32005963 -0.3631726 0.06918129
000320 bf 39 84 3e bd 6f a8 be e4 57 9c bc e1 ad 75 bd
       0.25825307 -0.3289775 -0.019084878 -0.059980277
000330 1a 61 a2 be d6 20 89 be ff b2 7a 3e bd d4 09 bf
       -0.31714708 -0.26782864 0.24482344 -0.5384024
000340 64 ed 85 b7 e5 5f c1 3e 75 69 79 bf 1f 32 8d bf
       -1.596538e-05 0.37768474 -0.9742654 -1.1030921
000350 d3 23 48 bd 78 b1 17 3e 56 73 fd be 2c 3e 22 bf
       -0.04886229 0.14813793 -0.49502057 -0.63376117
000360 eb 74 19 bf 50 ec 7e 3d 22 c9 8e be ee 77 01 3e
       -0.5994403 0.062237084 -0.27887827 0.12643406
000370 e6 ea eb bd 3a ab 1c be 22 1b 2d bd ff c1 14 be
       -0.11519413 -0.15299693 -0.042262204 -0.14527129
000380 9b 02 d5 3d 3b ad 48 bb 3d 97 e5 be df 03 e9 be
       0.104008876 -0.0030620832 -0.44841948 -0.45510766
000390 8f 74 27 bd d2 12 00 bf 73 bd 8c be 6d 70 0a 3e
       -0.040882643 -0.5002872 -0.27488288 0.1351945
0003a0 2f 54 23 3e b2 41 08 bf ac 08 43 3e 3b d3 f0 bd
       0.15950082 -0.53225243 0.19046277 -0.11759039
0003b0 0d f2 61 be 0a 98 83 bd 44 4e 71 3d 4a 7b 04 be
       -0.22064991 -0.064254835 0.05891253 -0.12937656
0003c0 ee 77 27 bf 7d f3 af be 7b ca 8c bd 92 da 7d bf
       -0.65417373 -0.34365454 -0.068745576 -0.99161637
0003d0 a1 0b 5e be 40 4f 32 bf 51 3e 0c bd 83 2e e9 be
       -0.21684124 -0.69652176 -0.034239117 -0.45543298
0003e0 41 88 d2 3a 63 1a f4 3e b8 59 d5 be 54 cb 97 be
       0.0016062335 0.4767638 -0.41670012 -0.29647315
0003f0 a2 8a b7 3c 86 6b ef be 1c 12 3b be 75 8d 1b bf
       0.022404972 -0.4676172 -0.18268627 -0.6076272

fc2.bias f4 [128]
000000 d0 88 af be fe 32 10 be 06 23 00 be f4 9f 97 bd
       -0.34284067 -0.14081952 -0.1251336 -0.074035555
000010 fc b4 b8 bd 23 88 28 3e 0c 56 f3 bd 62 8b 85 be
       -0.09018895 0.16458182 -0.118816465 -0.26082903
000020 75 27 0a 3e c9 95 94 be b8 54 a9 bd a9 e1 a3 be
       0.13491614 -0.29020527 -0.08268112 -0.32008103
000030 3a 3d 06 be da c9 d4 bd 4a ff 32 be 40 29 69 3d
       -0.13109294 -0.10390063 -0.17480198 0.056924105
000040 55 1a d0 3d 5f 89 9c be ed 64 85 bc 3c 87 aa bd
       0.101612724 -0.30573556 -0.016283477 -0.08326575
000050 61 3a 16 be a7 b7 6e 3d 8a dc 00 be 79 53 a7 bd
       -0.14670707 0.058280613 -0.12584129 -0.08170218
000060 1c af 53 be 8a ce a1 3c 5b a5 14 3d c4 9b fa bd
       -0.20672268 0.019751806 0.036290508 -0.12236741
000070 0e c0 78 bd bf 89 46 be 4c f0 48 3e 92 7e a7 bd
       -0.060730033 -0.19388483 0.19622916 -0.08178438
000080 5c f3 fd bd f2 86 db bc e2 6e 3e 3e 13 76 01 be
       -0.12399933 -0.026797745 0.18596986 -0.12642698
000090 0e 43 66 be 43 f3 29 be cd 20 36 3e c9 4e c8 be
       -0.22486517 -0.16596703 0.1778595 -0.39122608
0000a0 93 07 f8 bc 34 78 6c bd 56 e8 78 be ea 3c a7 bc
       -0.03027705 -0.057731822 -0.24307379 -0.020414788
0000b0 53 07 ec bd 98 35 f3 be 85 a6 10 be 06 4f d0 3c
       -0.115248345 -0.47501826 -0.14126022 0.025428306
0000c0 8f 49 98 3e d3 a6 33 3e 90 e4 d1 bd d8 e0 f6 3c
       0.2974362 0.17544107 -0.10248673 0.03013651
0000d0 c8 a6 27 3c 84 1f 7a be c7 5c a8 bd 87 cf cd bd
       0.010232635 -0.24426085 -0.08220821 -0.10049348
0000e0 45 72 f9 bd ff 06 ef bd 29 20 a1 3d 3b 61 fe 3d
       -0.12179998 -0.11671256 0.07867462 0.12420889
0000f0 15 c8 41 3f ec 7f d1 bd ef 4f 70 bd 20 e1 bd bc
       0.75695926 -0.10229477 -0.05866998 -0.023178637
000100 53 33 43 be e3 bc 98 be 03 36 2e be 97 f5 3a be
       -0.19062547 -0.2983161 -0.17012791 -0.18257748
000110 fe 9f 27 be 38 f1 97 be c0 37 4b be f6 76 a3 bd
       -0.16369626 -0.29676223 -0.19845486 -0.079816744
000120 69 22 ad bd 7b 25 67 bd 37 7d 35 be 20 e0 d4 bd
       -0.08453829 -0.05643223 -0.17723547 -0.10394311
000130 53 26 b8 bd db da 2f 3e 55 12 1d bd 62 2d ad bd
       -0.08991685 0.1717333 -0.03834756 -0.08455922
000140 f7 89 21 be 4d 99 7c bd 15 f8 30 be c4 05 c0 3e
       -0.15775286 -0.061669637 -0.17282136 0.375044
000150 f9 c0 04 be 95 8e 8d be 21 c5 2b bd a9 c4 d6 3b
       -0.12964238 -0.27647844 -0.041936044 0.0065542054
000160 20 fd ad bd 40 62 62 be bb cc 00 be a9 59 5e be
       -0.084955454 -0.22107792 -0.12578098 -0.2171389
000170 36 32 f4 bd f8 c9 1d be 28 38 c9 bd b9 bc e1 bd
       -0.119236395 -0.15409076 -0.09825164 -0.11022324
000180 84 68 c9 3e ca 77 1d 3c e3 1d e4 bd a4 93 83 be
       0.39337552 0.0096110795 -0.11138513 -0.25698578
000190 5c 5a 31 be b2 b1 b5 bd 3a 5d 82 be bc e8 a8 bd
       -0.17319626 -0.08871783 -0.2546175 -0.082475156
0001a0 77 ca b0 3e 97 6c 81 be dd 7b be bd e8 72 85 be
       0.34529468 -0.2527816 -0.09300969 -0.2606423
0001b0 15 de d8 bd 48 21 95 3d f0 f9 d0 bd b0 fe 00 bd
       -0.10589234 0.072817385 -0.10203922 -0.03149289
0001c0 98 2a 7c be 3b 23 47 be 40 f5 fe 3c 47 19 6f be
       -0.24625623 -0.19447033 0.031122804 -0.23349486
0001d0 41 c9 db bd 1a ef 36 be f2 f6 a6 be 91 9f 73 3e
       -0.107317455 -0.17864648 -0.3261028 0.23791339
0001e0 6b 87 de 3d 3d a7 0a be 99 3f e9 3c 54 b4 e4 be
       0.10865673 -0.13540359 0.028472709 -0.4466883
0001f0 59 95 65 be 0d c4 fd be fd 4a 9b be 54 1f 6f bb
       -0.22420253 -0.49563637 -0.3033065 -0.003648718

fc3.weight f4 [1, 128]
000000 60 5d 25 3d ba c0 73 ba eb 69 75 3c e5 37 67 3d
       0.040372252 -0.0009298433 0.014978866 0.05644979
000010 6f 68 07 bc bb bd c9 3d 9f 72 12 bb a3 cb a8 bc
       -0.008264645 0.09850641 -0.0022346152 -0.020604914
000020 36 54 d5 3d ce cb 7b bd f6 d8 c1 3d 24 0e 95 bc
       0.104164526 -0.06147366 0.0946521 -0.01819522
000030 e9 f9 ac bb 35 d2 47 bd e9 48 bc b9 a4 13 21 bd
       -0.005278815 -0.048784453 -0.00035912477 -0.03932537
000040 ba 6a bc 3d 95 1c e5 bd 5f 0e 47 bd 61 d5 b0 3d
       0.09200044 -0.11187092 -0.04859769 0.08634449
000050 f3 d5 8e 3c df ea 6b bd dc 27 c9 3c d6 f1 65 bc
       0.017436003 -0.057597037 0.02455514 -0.014034709
000060 73 47 13 3e 87 af 94 3d 63 b9 92 3d c5 b1 2e 3e
       0.14382724 0.07260042 0.07164266 0.17060001
000070 d1 9d 0b bc 1d 75 5e 3d 97 79 d9 bc 4c 2a 0e 3a
       -0.008521513 0.054310907 -0.026547236 0.0005423173
000080 15 57 ef b9 0c cc 3d bd ed af 89 bc ba 9a e7 bd
       -0.00045650513 -0.046337172 -0.01680752 -0.113088086
000090 fe 3a 40 be 15 87 c7 bd 9e 3e b1 bd 76 60 02 bd
       -0.18772504 -0.09742562 -0.086545214 -0.031830274
0000a0 bc a1 6e bd f9 ab e6 bc f2 ce d5 bc 23 06 32 3d
       -0.05825971 -0.028158175 -0.026099656 0.043462884
0000b0 fc dc 01 3b 24 bf 4b bd 1c 5c be bc 1c 25 32 3d
       0.0019815555 -0.049742833 -0.02323728 0.04349242
0000c0 5b 45 6a bd d9 96 99 bc 73 0a 1c bd 09 25 8a 3d
       -0.05719505 -0.018748688 -0.038095903 0.06745345
0000d0 e2 78 57 bc 69 59 3a 3d ec a2 5f 3e 6c 3f a2 bd
       -0.013151379 0.045495424 0.21839494 -0.07922253
0000e0 65 41 97 bc e1 6f d9 3c d7 c3 a2 3c 10 2f c1 3e
       -0.0184638 0.026542606 0.019868774 0.37731218
0000f0 42 ce 38 3d df f6 c3 ba 91 34 a2 bb 60 79 2b ba
       0.045118578 -0.0014950893 -0.004950114 -0.00065412186
000100 31 e0 5a bd c2 6b 40 bd b8 20 91 bd 58 36 ed bc
       -0.05343646 -0.046977766 -0.07086319 -0.028956577
000110 81 f5 a5 3d 48 ae fd bc cd 5b a3 bd 50 a7 67 3c
       0.08103467 -0.030966893 -0.07976494 0.0141390115
000120 02 ba 1f bc d8 53 d4 bd bc 72 c3 bc 89 7c 6e 3c
       -0.009748938 -0.103675544 -0.02385842 0.014556059
000130 9e 38 41 bc 8e 11 6d 3d 85 5d 2b bd 41 07 32 bc
       -0.011793284 0.05787807 -0.041837234 -0.010865987
000140 f3 8c 3f 3c 5b 84 d2 ba 4d 8a 3e bd 9e 44 10 bd
       0.01169132 -0.0016061174 -0.046518613 -0.03522169
000150 07 f4 88 bc ab 79 ca bc 85 9b 22 bc 17 c1 ee 3d
       -0.016717924 -0.024716219 -0.009924774 0.11657923
000160 9e 04 cc bd 1e 80 b3 bd 83 ce 0c 3d 89 3d 5f 3d
       -0.09961818 -0.08764671 0.034376632 0.054502044
000170 96 54 c6 3c b3 c2 9f 3d 94 4e 6b 3d 4a 30 a7 bd
       0.024210256 0.07800808 0.057447985 -0.08163507
000180 e8 d1 ac 3c a9 1d 5e bd 5e 68 79 3c de 85 72 bd
       0.021096185 -0.054227505 0.015222637 -0.059209697
000190 8c cb 93 bc d3 5e bf 3d 71 b6 a1 3c a3 0a 31 bc
       -0.018041395 0.09344258 0.019740315 -0.010805759
0001a0 58 f6 b7 3c 96 7e 40 bd 6f de 82 bc b2 70 c0 bd
       0.022456333 -0.04699572 -0.015975205 -0.09396495
0001b0 ea 45 1c 3c 04 fd ad 3d d1 52 a0 bb 5d 5c 93 bd
       0.009538153 0.084955245 -0.004892685 -0.07195351
0001c0 45 e9 f2 3d e6 d9 ce 3a 47 77 f8 3c d1 b4 cf bc
       0.11860899 0.0015781492 0.030330313 -0.025354775
0001d0 8e a7 e6 b8 1d f1 af bc 7b de f6 bc 18 7e e5 3c
       -0.00010998464 -0.021477276 -0.030135384 0.028014228
0001e0 c8 5d c6 3c 18 61 69 bd 1c ec 49 bd af 56 42 bd
       0.02421464 -0.05697736 -0.049297437 -0.04744595
0001f0 88 08 a7 bd de 7d 9c bc f7 38 a8 3d ce 32 f2 bc
       -0.08155924 -0.019102987 0.0821399 -0.029565241

bn.weight f4 [256]
000000 a0 72 18 3f f0 5e 6b 3e f5 69 ae 3e 79 8c 0d 3f
       0.59549904 0.22985435 0.34065214 0.5529247
000010 0e b7 6b 3e 6b aa 97 3e 23 b4 59 3e d3 9e 32 3f
       0.23019049 0.29622206 0.21260123 0.69773597
000020 8e bd 12 3f 5e 9b 9a 3e c4 34 3f 3c b8 7b 8e 3e
       0.5732049 0.3019666 0.011670295 0.27828765
000030 9a 12 e3 3e 42 28 c5 3e 77 11 3d 3f 3c 77 e0 3e
       0.4435013 0.38507277 0.73854774 0.4384097
000040 52 b5 0b 3e 4f 19 8f 3e 0e 63 79 3e b2 23 b5 3e
       0.13643387 0.27948996 0.24354193 0.35378796
000050 97 d4 be 3e d7 29 ff 3e 00 bb d2 3e d5 50 82 3e
       0.37271568 0.4983661 0.41158295 0.25452295
000060 07 16 e2 3e 7b e7 eb 3e fb 30 db 3e cd fa 80 3e
       0.4415743 0.46075043 0.42810807 0.25191346
000070 37 e2 7d 3e 45 db 93 3e 6d ae a9 3e 71 6b 02 3f
       0.24793325 0.28878227 0.3314089 0.5094519
000080 e6 ed 95 3e 93 26 f0 3e 86 5b ba 3e 8e 40 e5 3e
       0.29283065 0.4690443 0.36397952 0.44775814
000090 0d 68 eb 3c e4 46 91 3e 25 9b e3 3e 68 fe 09 3f
       0.028736139 0.28374398 0.44454303 0.5390382
0000a0 b6 b0 ba 3e 9d 64 f7 3d b4 be b1 3e d7 b6 01 3f
       0.36462945 0.12079737 0.34715807 0.50669616
0000b0 4b 85 88 3e b5 56 7e 3e 26 15 2c 3e 27 47 1e 3f
       0.26664194 0.24837764 0.16804942 0.6182732
0000c0 4c 1b cd 3e 4b 7c a2 3e b2 9b 75 3e 43 77 13 3e
       0.40059888 0.31735453 0.23985174 0.14400963
0000d0 6c e5 a8 3e ed b2 6f 3e 06 71 6c 3e aa 80 c5 3e
       0.32987535 0.23408099 0.2308999 0.38574725
0000e0 90 d6 13 3f 74 f2 41 3f c7 32 8b 3e a9 e2 e8 3e
       0.5774927 0.7576058 0.27187178 0.45485428
0000f0 ae 40 33 3f cc ef 99 3e 11 2a 32 3f b7 e9 9e 3e
       0.7002057 0.30065763 0.6959544 0.31037685
000100 b1 03 13 3e 62 88 6d 3e e9 9d cb 3e d7 04 8f 3f
       0.14356877 0.23196557 0.39768913 1.1173352
000110 f3 1d 79 3e a1 2e 5c 3e ea 9b 82 3e 21 91 75 3e
       0.24327831 0.21502163 0.25509578 0.23981144
000120 22 98 76 3e a6 31 07 3f b3 57 d3 3e d9 3a 9e 3e
       0.24081472 0.5281013 0.41277847 0.30904272
000130 7d f6 3c 3e 13 67 c3 3e 95 4d 2b 3f b5 aa cd 3e
       0.18453403 0.38164577 0.66915256 0.40169302
000140 41 24 f4 3e e3 ac 32 3e 90 7f 94 3e 79 6c a3 3e
       0.4768391 0.17448764 0.29003572 0.31918696
000150 0e 74 8b 3e e6 e2 0e 3f 8f 00 9d 3e b0 0b 78 3e
       0.2723698 0.5581497 0.3066449 0.24223208
000160 36 f1 06 3f 1c 24 0d 3f 21 17 98 3e d1 60 93 3e
       0.5271181 0.55133224 0.29705146 0.28784803
000170 14 9c eb 3c ce 38 02 3f 10 b9 84 3e 34 93 ae 3e
       0.028760947 0.5086793 0.2592244 0.34096682
000180 23 e5 68 3e 6a 53 99 3e 0f 80 8c 3e 4d 4b e4 3e
       0.22743659 0.29946452 0.2744145 0.445887
000190 6c 38 64 3e 74 ea f8 3e f4 7c 11 3f 16 36 d2 3e
       0.22287148 0.48616374 0.5683129 0.4105689
0001a0 25 73 c0 3e 75 1b 42 3e d4 86 70 3e b7 58 ac 3e
       0.37587848 0.18955787 0.23488933 0.33661434
0001b0 50 a8 b4 3e 32 65 a9 3e a5 36 0d 3f ba 12 c0 3e
       0.35284662 0.33085018 0.55161506 0.37514287
0001c0 4c 5d f6 3e c6 00 cd 3e 3f 40 92 3e 49 c1 9e 3e
       0.48118055 0.40039653 0.2856464 0.3100684
0001d0 41 53 b2 3e dd cf 66 3e ee 29 c8 3e 2b e8 ee 3e
       0.34829143 0.22540231 0.3909449 0.46661505
0001e0 29 a1 d2 3e 37 8a 49 3f 00 ef 5e 3e 8c b1 c4 3e
       0.4113858 0.78726524 0.21770859 0.38416708
0001f0 d4 3e a2 3e a5 b8 70 3e 8c a3 a6 3e 32 82 6a 3e
       0.3168856 0.23507936 0.3254665 0.22901228
000200 fe af 8d 3e ed 4f 7b 3e 3b 15 9a 3e 51 75 93 3e
       0.27673334 0.24542208 0.30094323 0.28800443
000210 92 50 d3 3e 8c 59 d2 3e ef f8 4d 3f fb aa d0 3e
       0.41272408 0.41083944 0.8045797 0.40755448
000220 bc ea 8f 3e dd ca 7c 3e 26 9b 74 3e 27 a6 88 3e
       0.28108776 0.24686761 0.2388731 0.26689264
000230 cb 69 ae 3e 49 fd 96 3f d5 1b fb 3e f3 dd 2c 3f
       0.3406509 1.1796046 0.49044672 0.6752617
000240 b7 5d e0 3e 40 95 8c 3e 94 8e 49 3e e0 6f 7d 3e
       0.438215 0.2745762 0.19683295 0.24749708
000250 6b f7 06 3f 37 b8 99 3e 68 0b 5f 3e f3 53 94 3e
       0.5272128 0.30023357 0.21781695 0.28970298
000260 86 d8 dc 3e dc 45 41 3e 2c 1d ba 3e 69 05 ad 3e
       0.43133944 0.18874305 0.3635038 0.3379319
000270 3c 70 61 3e eb 5b 97 3e 2d e5 3b 3f 15 54 dd 3e
       0.2201547 0.29562315 0.7339657 0.43228212
000280 1a 23 46 3e 0e 41 4c 3e 3e 43 f2 3d 5d d8 8e 3e
       0.19349328 0.19946691 0.11829232 0.27899447
000290 6a 9d 95 3e 64 59 4c 3e 2c db 3b 3e 05 d7 e4 3e
       0.2922166 0.19955975 0.18345326 0.44695297
0002a0 2c 16 9e 3e 61 d8 b1 3e b8 dc b5 3f 01 11 99 3e
       0.3087629 0.34735397 1.4207983 0.29895785
0002b0 03 ac bd b8 9a b5 64 3f f9 49 cc 3e ba f2 db 3e
       -9.044262e-05 0.893396 0.39900187 0.42958623
0002c0 91 dd 70 3e b5 77 84 3e 5b 08 a9 3e ef 13 ab 3e
       0.23522021 0.2587258 0.33014187 0.33413646
0002d0 05 47 4e 3e ef 42 7c 3e 4e 8e 69 3e 87 d5 33 3e
       0.2014428 0.24634908 0.22808191 0.17561923
0002e0 80 29 b8 3e c8 b0 82 3e a1 2f d6 3e 68 b1 80 3e
       0.35969162 0.25525498 0.41833213 0.2513535
0002f0 eb 4d 45 3f ac ef 9d 3e 0f 91 94 3e ce 6f b7 3e
       0.7707202 0.30846918 0.2901692 0.35827488
000300 48 e9 0a 3e ce 36 02 3f da c1 f6 3e 76 2b 81 3e
       0.13565552 0.50864875 0.48194772 0.2522847
000310 06 f0 01 3f f3 0c 4c 3e c0 ea 90 3e f3 19 03 3f
       0.5075687 0.19926815 0.283041 0.5121147
000320 dc a2 00 3f a5 0a 7d 3e b0 1f 4a 3e 51 f6 ce 3e
       0.50248504 0.24711092 0.1973865 0.404223
000330 ee 38 af 3e 92 4e b8 3e 8a ca 62 3e b2 cf 25 3f
       0.3422312 0.35997444 0.22147575 0.6477004
000340 9d fe 77 3f 86 aa 98 3e fb 81 73 3e 66 34 ce 3e
       0.96872884 0.298176 0.23780052 0.40274352
000350 fb 21 ce 3e 88 ba 1f 3e 2a eb aa 3e 05 43 c1 3e
       0.402603 0.155985 0.3338254 0.37746444
000360 5c 27 c8 3e a3 b2 12 ba 1f 20 b4 3e cb a8 8f 3e
       0.3909253 -0.0005596077 0.35180756 0.28058466
000370 12 0f 14 3a a5 13 5b 3f 5b 01 a8 3e eb 42 e3 3e
       0.00056479976 0.8557685 0.32813534 0.44386992
000380 26 1c 92 3e 31 7e 7f 3e 27 61 c6 3e 60 53 5e 3e
       0.285371 0.24950482 0.38745996 0.21711493
000390 7b 50 ad 3e 33 36 87 3e 3a 4a b0 3e 4f 12 df 3e
       0.33850464 0.26408538 0.3443163 0.43568656
0003a0 58 94 b4 3e 9c 26 fb 3e be 8a 7b 3e 13 54 88 3e
       0.35269427 0.49052894 0.24564645 0.26626644
0003b0 14 5c c4 3e 6d 3e bc 3e 9b a5 bf 3e dc b2 b5 3e
       0.383515 0.36766377 0.37431034 0.3548802
0003c0 4f 19 a7 3e 77 57 69 3e 4a 1f e9 3d 98 a2 41 3e
       0.32636496 0.22787271 0.11382921 0.18909681
0003d0 4a cc cd 3e d9 49 b7 3e e7 a1 80 3e 50 e9 83 3e
       0.40194923 0.3579853 0.25123522 0.2576394
0003e0 dd d6 46 3f 58 03 a3 3e 36 d7 97 3e 02 c5 9d 3e
       0.77671605 0.3183849 0.2965638 0.30814368
0003f0 6f f6 34 3b 39 28 99 3e 73 34 c7 3e d4 38 f4 3e
       0.0027612706 0.299135 0.38907203 0.47699606

bn.bias f4 [256]
000000 18 56 5e be 2c b3 87 be 40 34 a6 be a3 21 00 bf
       -0.2171253 -0.26503885 -0.3246174 -0.50051326
000010 db c0 7a be 6d 53 ea bd e6 55 82 be 99 a1 af 3d
       -0.24487631 -0.114416935 -0.2545616 0.08575744
000020 6c 38 17 be 76 03 75 be 99 d3 58 bd a5 c6 2d be
       -0.14767617 -0.23927101 -0.05293617 -0.16970308
000030 f3 cf a6 be 92 49 c0 be bd 7e bb be 02 88 a7 be
       -0.32580528 -0.3755613 -0.3662013 -0.32720953
000040 0f 62 7c bc fa 2d 5d be 24 e3 cf be 7b e8 31 bc
       -0.015404238 -0.2159957 -0.40602982 -0.01085865
000050 86 95 b2 be 41 3d ad be 87 db af be 57 df 21 be
       -0.34879702 -0.33835796 -0.34347174 -0.15807854
000060 bc b5 b5 be b1 03 2d bf 31 09 f0 be 32 32 a6 be
       -0.35490215 -0.6758376 -0.46882012 -0.3246017
000070 4e 83 8f be 46 28 8a be 70 68 88 be 07 2a 27 bf
       -0.28029865 -0.2698385 -0.2664218 -0.65298504
000080 92 c2 21 be 5c 71 c6 be df c2 cf be 89 bd 37 be
       -0.15796879 -0.3875836 -0.40578362 -0.17943396
000090 dd 24 99 be 26 2b f7 be d3 88 9d be fc 1a d8 be
       -0.29910937 -0.48275107 -0.3076845 -0.42208087
0000a0 f1 2f 1a be a6 3d 84 3d a2 17 c7 be 4d c7 8c be
       -0.1505735 0.06457071 -0.38885218 -0.27495804
0000b0 6a ab 3f be 8c 28 85 be 8d 8b 01 be 9d e3 03 bf
       -0.18717733 -0.26007497 -0.1265089 -0.51519185
0000c0 6b 75 08 bf 40 32 c0 be a1 1c 39 be 5c 84 b4 3d
       -0.53304166 -0.37538338 -0.18077327 0.08814308
0000d0 80 14 a3 be ad ec 72 3e 17 30 1a be 16 09 bf bd
       -0.31851578 0.23723097 -0.15057407 -0.09327905
0000e0 bc 06 24 bf d5 0a 3d bf 15 24 a6 be bb d0 47 be
       -0.64072776 -0.73844653 -0.32449403 -0.19513218
0000f0 75 88 62 3b 74 de 7a be 42 29 9a bd fc bb 8b be
       0.0034566198 -0.24498922 -0.075274006 -0.27291858
000100 b9 5c d7 3d 1d 5b d2 be 12 c2 18 bf b1 f3 d1 be
       0.10515732 -0.4108514 -0.5967113 -0.41006234
000110 f8 df fe bc 07 e4 39 be 3e b9 ab be d9 3a b8 be
       -0.031112656 -0.18153392 -0.33539766 -0.35982397
000120 82 00 95 be c4 6f 0a bf 3c b7 0f bf e1 34 db be
       -0.2910195 -0.5407679 -0.5613897 -0.4281378
000130 af 1c cb bd f5 37 b9 be b6 e8 82 bd c9 46 00 bf
       -0.0991758 -0.36175504 -0.06392042 -0.5010801
000140 be 22 bc be 09 ac c8 bd 72 41 c5 be 72 f8 82 be
       -0.36745256 -0.09798438 -0.38526493 -0.25580174
000150 ee c1 b6 be dc 0b 4d be c8 20 9e be cb d8 88 be
       -0.35694832 -0.20024055 -0.30884385 -0.267279
000160 6c f6 e5 be fc 89 00 bf 2a 48 9f be d7 c1 76 be
       -0.44914567 -0.5021055 -0.31109744 -0.24097382
000170 23 c2 32 be af ce a6 be 48 77 29 be ce 3c 6f be
       -0.1745687 -0.32579562 -0.16549408 -0.23363039
000180 de 13 3d be 2e 30 94 be e4 19 18 be a6 e2 f1 be
       -0.1846461 -0.28943008 -0.14853626 -0.47243232
000190 a1 c3 be be 9b 91 2e 3d 70 64 f7 bd e2 cf ad be
       -0.37258628 0.04261933 -0.12079704 -0.33947664
0001a0 12 bf 8a be fc f0 47 bd 37 7f 2c be 37 00 b4 be
       -0.270989 -0.048813805 -0.16845404 -0.35156414
0001b0 d6 d7 d5 be 22 59 b1 bd 67 fa 08 bf e8 36 a0 3d
       -0.41766232 -0.08659579 -0.53507084 0.078229725
0001c0 bb b4 41 be c8 6b c5 be 57 95 aa be 23 5f a9 be
       -0.189166 -0.38558793 -0.33317062 -0.33080396
0001d0 29 5b 98 3e 38 3e 44 be 65 1e a4 be 42 a9 c1 be
       0.2975705 -0.1916436 -0.3205444 -0.37824446
0001e0 21 a1 83 be 5f 5c 0f bf 52 db 6e be 53 68 0f 3e
       -0.2570887 -0.5600032 -0.23325852 0.1400464
0001f0 b9 6e 88 be 94 d4 14 be e2 2a 4b be 02 41 d5 be
       -0.26646975 -0.14534217 -0.19840577 -0.4165116
000200 3b f1 a9 be 75 7a c7 bd 70 96 a9 be 35 83 c9 be
       -0.33191857 -0.09740154 -0.33122587 -0.39357916
000210 a7 12 92 be bc c1 96 be cf f5 0f bf da 71 e0 be
       -0.28529856 -0.29444683 -0.5623445 -0.43836862
000220 e4 09 d8 be 9f 35 40 be 9f 58 27 be f4 f9 d9 be
       -0.42195046 -0.18770455 -0.163424 -0.42573512
000230 21 20 dc be e8 b3 fa bd 16 fa b2 be a3 1c 78 bd
       -0.42993262 -0.12241346 -0.34956425 -0.060574185
000240 fe 24 d3 be 98 5c 7a be 4a 8f 0f 3e fc 92 9d be
       -0.4123916 -0.24449384 0.14019504 -0.30776203
000250 a2 50 ba 3d f0 51 6c be cc 0a 85 be eb 78 72 be
       0.09097411 -0.23078132 -0.259848 -0.23678939
000260 13 17 a7 be af c0 da bd 98 39 dc be 8a 87 1b be
       -0.32634792 -0.10681283 -0.4301269 -0.15188423
000270 8f 17 61 be 8f fe 38 be a2 6c fe be c0 be 2f bf
       -0.21981643 -0.18065856 -0.49692255 -0.68650436
000280 4e 81 0b be a9 79 f6 bd 74 2c 3f 3d 50 12 5c be
       -0.13623545 -0.120349236 0.046673253 -0.2149136
000290 45 b1 a8 be f1 48 20 be cf d4 0b be 80 ed ae be
       -0.32947746 -0.15652825 -0.13655399 -0.34165573
0002a0 72 e7 b6 be 1e 5e bf be aa 5b 43 be 71 77 de be
       -0.35723454 -0.37376493 -0.19077936 -0.43450502
0002b0 95 a5 b9 bb a2 9f 1a bf d3 98 df be 38 da b6 be
       -0.005665491 -0.6039983 -0.43671283 -0.35713363
0002c0 1a e4 85 be 1a 48 80 be 2a 87 37 be 04 39 68 be
       -0.2615059 -0.2505501 -0.17922655 -0.22678
0002d0 25 4d 82 be 4a 04 57 be bb cb 6f be c9 0e 13 be
       -0.25449482 -0.2099773 -0.23417561 -0.14361109
0002e0 c8 5e ba be 0e 97 1a be 63 e9 a1 be fe c2 b6 be
       -0.36400437 -0.15096685 -0.31623372 -0.35695642
0002f0 96 56 af bd 6e 52 d4 be d8 78 b0 be 14 5f 94 be
       -0.08561437 -0.4146914 -0.34467196 -0.2897879
000300 eb d2 81 bd 60 03 26 be 89 b7 e5 be 60 3f d3 be
       -0.063390575 -0.16212225 -0.4486659 -0.4125929
000310 d8 a8 89 be fc 76 98 3d ac be d8 bd 05 30 5d be
       -0.2688663 0.074445695 -0.10583243 -0.21600349
000320 fc f6 23 be 5f 1e 40 be 21 fe bc bb 3c c5 b5 be
       -0.16012186 -0.18761586 -0.005767599 -0.3550204
000330 dc 86 d6 be 3d 31 be be 56 bf 23 be 0d fe 82 bc
       -0.41899765 -0.3714694 -0.15990958 -0.015990281
000340 bd 17 a3 3c e7 47 b3 be 0e 1a d8 be e6 c7 82 be
       0.01990878 -0.35015795 -0.42207378 -0.25543135
000350 8b 85 1c 3e 6b 87 30 bd 7c 67 d4 bd a5 5d 8e bd
       0.15285318 -0.043097895 -0.103713006 -0.06951455
000360 8e d9 9e be d8 33 e9 bc 06 83 a6 be cf 50 b5 be
       -0.31025356 -0.028467104 -0.32521838 -0.35413215
000370 94 8f 53 bd 43 62 07 bd db d2 90 be 81 56 57 be
       -0.0516506 -0.033052694 -0.2828587 -0.21029092
000380 1c 85 21 be 13 3a 39 be fd db 32 be 48 1c d7 bd
       -0.15773433 -0.1808856 -0.17466731 -0.10503441
000390 d1 cd 10 bf e8 90 83 be 5d df a6 be 65 4a 28 be
       -0.5656405 -0.25696492 -0.32592288 -0.1643463
0003a0 39 79 28 be 9d 2a c5 be fe af 09 be 99 c5 86 be
       -0.16452493 -0.38509074 -0.13446042 -0.2632263
0003b0 26 9f 53 be 94 6b 9f be 9c ab bd be e4 a5 b4 bd
       -0.20666179 -0.31136763 -0.3704499 -0.088207036
0003c0 d9 e9 e1 be 41 94 5d be 75 af b5 3c 66 e9 de bd
       -0.44123724 -0.21638586 0.022178391 -0.10884361
0003d0 04 b2 2a be 53 72 1c bf 16 d0 17 be a2 8f 8b 3d
       -0.1666947 -0.61111945 -0.14825472 0.06814505
0003e0 8e 20 44 bf 78 c8 86 be 19 4e 65 be bd f7 d3 bd
       -0.76612175 -0.2632482 -0.22393073 -0.10349987
0003f0 03 ae 73 bc 7f 1f 8d be 61 0f 94 be f7 4e 13 bf
       -0.014873031 -0.27563092 -0.28917983 -0.57542366

bn.running_mean f4 [256]
000000 bd e2 d5 41 b3 d9 ec c0 01 d4 17 c1 5e 6e 64 41
       26.735712 -7.4015746 -9.489259 14.276945
000010 e0 78 96 3f c0 72 97 41 d0 de c7 c1 21 cd 87 c0
       1.1755638 18.93103 -24.983795 -4.24379
000020 bf 9a 85 41 66 cf 99 c1 7b 65 1f bf 3d 51 7b 41
       16.70056 -19.226269 -0.6226422 15.707334
000030 5e 91 ef c0 c3 da 2c 41 61 9a 7d c0 24 72 34 41
       -7.486495 10.803409 -3.9625475 11.277866
000040 66 c4 b9 c1 92 63 f7 41 41 af 1e c0 f0 34 a6 c1
       -23.220898 30.923618 -2.4794466 -20.775848
000050 06 8b b6 c1 36 08 a9 be de 77 3c c1 ee 1c db 41
       -22.817883 -0.33014077 -11.779264 27.389126
000060 9f b9 3b c1 8b 78 d1 41 fd f0 00 41 59 e3 b7 c0
       -11.732818 26.183859 8.058835 -5.7465024
000070 14 63 33 c0 71 bb 27 c1 b5 a5 88 40 fa 63 9d 41
       -2.8029222 -10.483262 4.270228 19.673817
000080 8f 54 57 c1 9f 38 49 40 2d 2f a0 40 25 fc 68 3e
       -13.458144 3.1440809 5.005759 0.22752436
000090 ad 61 f9 3f 8e a3 99 c0 4c cd a5 c1 c0 f2 cc 41
       1.9482933 -4.801215 -20.725243 25.61853
0000a0 11 4e 21 c2 d2 e2 19 41 e8 95 32 42 eb 65 7d 40
       -40.326237 9.617876 44.646393 3.9593456
0000b0 60 e2 1c c0 fc 78 b0 c1 9c 0b 05 41 cf 8d 67 41
       -2.4513168 -22.059074 8.315334 14.472121
0000c0 4f 82 8c bf 61 1c bc c1 67 e1 5a 41 ba c1 1b 40
       -1.0977267 -23.513857 13.68003 2.4336991
0000d0 8c 04 c9 41 2c 21 9c c0 19 4a fb 3f e4 b0 b7 41
       25.12722 -4.8790493 1.9631988 22.961372
0000e0 1d 6a 6b c1 7f 82 8a 41 8d 7b 82 c1 4d d2 89 c1
       -14.713407 17.313719 -16.310328 -17.227686
0000f0 75 2c 45 40 5c ce 2a c0 bc 68 ab 40 c5 5a 89 c1
       3.0808384 -2.6688452 5.356535 -17.169321
000100 53 61 02 c0 e0 00 76 c1 8f 9a 2e c1 69 52 15 40
       -2.0371902 -15.375214 -10.912734 2.333155
000110 80 d3 6c 41 a3 2d c9 41 1c 4a 91 c1 b5 95 9c 3f
       14.801636 25.147284 -18.161186 1.2233187
000120 bb f8 92 c1 1c d2 dd 40 3d 7a 62 3f b7 d7 e2 bf
       -18.37145 6.931898 0.8846777 -1.7722081
000130 ed 91 7d 40 cc f0 5f c0 d5 2c 1d 3f f8 84 96 41
       3.9620316 -3.499072 0.61396533 18.814926
000140 71 8a b6 c1 fe cb 3c 41 96 43 d4 41 e7 42 16 40
       -22.817598 11.799803 26.533 2.3478334
000150 85 1d ad 41 72 67 fc 40 d4 1f 85 c0 93 f5 80 c0
       21.639414 7.8876276 -4.1601353 -4.0299773
000160 16 24 cd c1 69 f2 a4 40 0d bf a4 41 13 1c 20 40
       -25.64262 5.154591 20.593287 2.5017135
000170 b5 63 ca be 9a 9e f4 40 7a eb e2 40 53 7d d8 41
       -0.39529195 7.6443605 7.0912447 27.061193
000180 22 5f 4e c1 37 f0 45 41 4c d6 42 c1 a3 9b 8b 41
       -12.898226 12.371146 -12.177319 17.450994
000190 8d a2 c1 bf 24 2b 10 c0 3b 0c 0c 41 e7 9d 5b c1
       -1.5127732 -2.252633 8.752986 -13.72605
0001a0 54 06 60 c1 17 a6 5b c1 57 bb 86 c1 08 09 b7 c1
       -14.001545 -13.728049 -16.841475 -22.87941
0001b0 88 da 08 41 1f 15 56 41 61 e9 18 41 dc f9 f5 40
       8.553352 13.3801565 9.556977 7.6867504
0001c0 60 92 80 3f a2 5f cd 40 55 eb fd c1 f7 67 29 41
       1.004467 6.417924 -31.739908 10.587882
0001d0 0e e6 27 c1 89 5e 55 c1 87 ba af 41 17 e2 30 c1
       -10.493666 -13.33558 21.966078 -11.055198
0001e0 da e0 ef c1 5e aa 8f c0 d2 d8 66 c0 f2 90 01 c0
       -29.98479 -4.489547 -3.6069837 -2.0244718
0001f0 87 aa c6 41 89 4b 8c be 86 04 d0 41 45 59 3f 41
       24.833265 -0.2740138 26.002209 11.959294
000200 aa d0 0c 40 c4 4a 24 c1 5d 11 53 41 ca c8 1a c2
       2.2002358 -10.268253 13.191739 -38.696083
000210 d4 1c 24 40 66 12 a6 41 96 1a 46 41 76 75 33 41
       2.5642595 20.758984 12.381491 11.216177
000220 6d d7 cd 41 ef 57 4a 40 87 1b c8 c1 6b 3d ad 41
       25.730188 3.161617 -25.013441 21.65499
000230 55 48 49 bf 38 f5 ee 40 16 0f 0a c2 c8 70 6b 41
       -0.78625995 7.467434 -34.514732 14.7150345
000240 dd 36 24 41 21 ca f9 40 c9 bc 11 41 49 21 49 41
       10.263394 7.805924 9.10859 12.570626
000250 11 2f 51 c1 8d 9c 14 41 d9 c5 b9 41 31 6c 49 41
       -13.073991 9.28822 23.221605 12.588914
000260 49 3e 69 40 a4 88 9d 40 54 cb b1 c0 5c c8 35 c1
       3.6444266 4.92293 -5.5560703 -11.361416
000270 27 5e df bf e1 a0 10 c2 ed 81 ff 40 9a 9b d6 c1
       -1.7450608 -36.15711 7.98461 -26.825977
000280 05 40 5f c1 10 16 20 41 75 4c f9 c0 c2 42 70 41
       -13.95313 10.005386 -7.790583 15.016298
000290 e0 32 b0 c0 0e 8a 90 c0 fc 9c d7 41 4b 79 0d c1
       -5.5062103 -4.5168524 26.951653 -8.842113
0002a0 4e 01 14 41 b0 d3 85 c1 fc e2 10 bf 3c 1e 80 c1
       9.250319 -16.728363 -0.5659635 -16.014763
0002b0 c0 0b 2a 40 44 64 f0 c0 e9 6e e1 40 00 78 16 41
       2.6569672 -7.5122395 7.044789 9.404297
0002c0 e4 cb 05 41 ec 49 c9 3e 63 ef e1 bf ea 88 ef 3f
       8.362278 0.3931421 -1.765118 1.8713658
0002d0 fd df 63 c1 64 d3 e8 c1 6f 2d 71 c0 81 fa 95 40
       -14.242185 -29.103218 -3.768398 4.686829
0002e0 a6 74 c5 40 58 5f ff c0 05 1e 42 41 f9 e3 a1 c1
       6.1704893 -7.9803886 12.132329 -20.236315
0002f0 de 15 a1 c0 15 36 e0 c1 1b da 77 c0 f8 15 71 c0
       -5.0339193 -28.026407 -3.872687 -3.7669659
000300 29 a8 3e 40 f6 09 24 c1 33 7a 67 c1 83 2a c4 40
       2.9790137 -10.252432 -14.467334 6.1301894
000310 e2 62 ae 3f f9 4f ee 41 a7 02 bf c0 14 a1 d2 c0
       1.3623927 29.78905 -5.969074 -6.582163
000320 cb ad 55 41 ac 41 65 41 0f 12 ad 40 b1 4c e1 3f
       13.35493 14.328533 5.4084544 1.7601529
000330 39 5e af c1 70 4c a6 40 72 89 3e 41 87 3b 5b 40
       -21.921007 5.1968307 11.908556 3.4255083
000340 9d c4 9d 40 11 0e d1 c1 5b be 06 c1 48 6e a0 41
       4.9302506 -26.131868 -8.4214735 20.053848
000350 5a 71 5f 41 b3 06 36 c1 ff 75 db 40 03 1d 60 40
       13.965174 -11.376636 6.858154 3.5017707
000360 d6 45 e9 3f 94 73 a2 3f a8 59 d9 3f 09 07 8a c1
       1.8224437 1.2691522 1.6980486 -17.253435
000370 82 c8 80 c0 13 0a b8 40 19 55 c8 c1 14 d5 28 41
       -4.024476 5.75123 -25.041552 10.552021
000380 ed 6c bc 41 3b 80 6e 41 e0 23 2d 41 6a 10 e1 40
       23.553186 14.906306 10.821259 7.0332537
000390 33 b9 78 c1 cd 40 af 40 c0 06 71 c1 7c d8 68 40
       -15.545215 5.4766603 -15.064148 3.6382132
0003a0 c9 39 09 42 25 e1 3c c1 9b 2b 14 c1 bc 21 0f 41
       34.30643 -11.804967 -9.260646 8.945736
0003b0 df e4 60 c1 4c 69 06 41 20 41 2f 41 fc 2a cf 41
       -14.055877 8.400707 10.9534 25.895988
0003c0 14 c4 4f c0 91 9b 45 41 cc 4e 3c bf c7 97 b9 bf
       -3.2463427 12.35048 -0.73557734 -1.4499444
0003d0 e3 e4 0f 41 27 71 ec bf 61 6a b3 40 e4 02 e9 c1
       8.993381 -1.8472031 5.6067357 -29.126411
0003e0 e3 cc fb 40 09 e2 d5 41 42 63 92 bf 99 d3 08 42
       7.8687606 26.735369 -1.1436541 34.20664
0003f0 0d dd e2 bf 7e 8f 0e 41 3a 5c 23 41 83 b7 02 c1
       -1.7723709 8.910032 10.210016 -8.169803
