checkpoint_critic_a.pth (torch_old, 189888 bytes, 9 tensors)

fcs1.weight f4 [256, 48]
0.59318924 1.0213379 -0.17902295 0.067991935 -0.24807936 0.89007133 -0.12518555 0.0319108
0.4998751 0.88344437 -0.0637588 -0.113368064 -0.3561998 0.97488606 -0.09018587 -0.12969422
0.40742287 0.66622436 0.25935733 -0.41610956 -0.25870562 1.163757 0.2791761 -0.4215356
0.23076116 -0.39427963 0.077994145 -0.072438404 0.24956027 0.8593811 0.08651981 -0.07995635
0.18051322 -0.41089866 0.07893093 0.5193646 0.26597694 0.951686 0.088266514 0.5305218
0.04708752 -0.55702424 -0.10615311 0.073101886 0.27718884 1.1707894 -0.090874106 0.08959626
-0.26815012 0.6046844 -0.17695238 0.09193361 0.54965466 0.80241144 -0.14260651 0.14237551
-0.26956323 0.58997756 0.004955548 -0.04554753 0.5348621 0.4395012 -0.004516141 -0.0987808
-0.4230864 0.47590917 0.011276806 -0.37134188 0.44572496 0.49321294 -0.02392084 -0.4405639
0.12867881 0.5498997 0.09164453 0.5883288 -0.50648504 0.7260209 0.09402116 0.47359872
-0.0032607522 0.5976981 0.09621966 -0.33801875 -0.5200011 0.44132358 0.10686762 -0.2474163
-0.04855553 0.748217 0.52110165 0.20651992 -0.4390793 0.49702433 0.5547257 0.19376718
1.0007107 1.2509037 0.01494185 -0.013033534 -0.23590441 -1.484784 -0.027625442 0.0066506057
0.95609605 1.1052732 -0.037939914 -0.29844272 -0.16112608 -0.57867646 0.01198286 -0.26711437
0.7744784 0.95994586 0.0036034116 0.47928628 -0.22284368 -0.8443909 0.06601931 0.4177677
0.026616793 -0.38197866 0.038156368 0.1078726 0.23921669 -1.5271994 -0.026094528 0.06846037
0.22069296 -0.60606253 -0.03500529 -0.017446388 0.114414275 -0.6071925 -0.008426673 -0.07376484
-0.17103535 -1.0571992 -0.018853957 -0.086105585 0.13434224 -0.7497114 0.0232615 -0.04447107
-0.1944277 0.46929207 0.46760353 -0.020451702 -0.008897318 0.64728075 0.47310236 -0.12191554
-0.37828183 0.46981072 -0.10284276 0.21802121 0.26835293 0.7880037 -0.100126535 0.27530384
-0.06142963 0.44962704 0.25624263 0.35147598 0.4107401 0.847559 0.2734438 0.37579152
-0.12598829 -1.0297512 0.031276826 0.097530305 -0.090133294 0.63354945 0.017683037 0.061526164
-0.3661467 -0.88299406 -0.19986483 0.17543092 -0.17866738 0.7252957 -0.16847143 0.21262889
-0.4741957 -1.0897672 -0.07041656 0.15405205 -0.4529986 0.7991952 -0.029581504 0.10251119
-0.08970146 1.0320244 -0.14178857 -0.14200735 -0.13358757 -0.44439575 -0.036040038 -0.19717383
0.42760566 0.9664937 0.531642 0.17431991 -0.121811315 -0.51425105 0.59956104 0.09105039
0.5702844 0.7502495 -0.14172046 -0.4915346 0.031085584 -0.6377877 -0.14609098 -0.48309267
0.08038622 -0.040974874 0.17268491 0.08278268 0.16170943 -0.40291235 0.171965 0.07587487
0.50295496 0.16282065 0.047122505 0.63735443 0.07848137 -0.5382439 0.06645418 0.5295896
0.5670562 0.16487406 -0.058433123 0.11051114 -0.0384718 -0.6169667 -0.008085286 0.17044145
0.8220557 0.6398416 0.05854005 0.30226249 0.03329718 0.09160039 0.0345295 0.35527012
0.80364776 0.64285004 -0.12698418 0.431854 -0.097605534 0.10154938 -0.07082614 0.4305092
00000000: 40db 173f 33bb 823f cb51 37be 5b3f 8b3d
00000010: 8408 7ebe b7db 633f a430 00be e6b4 023d
00000020: a1ef ff3e 6929 623f f993 82bd 842d e8bd
00000030: d25f b6be 2292 793f 5fb3 b8bd 90ce 04be
00000040: bb99 d03e ae8d 2a3f 7cca 843e 500c d5be
00000050: 1075 84be fdf5 943f 2bf0 8e3e 84d3 d7be
00000060: a74c 6c3e 05df c9be 65bb 9f3d 965a 94bd
00000070: ba8c 7f3e 6600 5c3f 4c31 b13d 28c0 a3bd
00000080: 75d8 383e 4f61 d2be 8aa6 a13d 14f5 043f
00000090: 212e 883e b2a1 733f 13c5 b43d 47d0 073f
000000a0: d8de 403d 2499 0ebf cd66 d9bd 71b6 953d
000000b0: b2eb 8d3e 6ddc 953f 341c babd 3e7e b73d
000000c0: f94a 89be 99cc 1a3f 0133 35be b047 bc3d
000000d0: 2bb6 0c3f d66a 4d3f 7107 12be e3ca 113e
000000e0: 3104 8abe c508 173f 2662 a23b 0c90 3abd
000000f0: b9ec 083f 4d06 e13e 23fc 93bb 974d cabd
00000100: c89e d8be 5eaa f33e 5ac2 383c 8620 bebe
00000110: 1036 e43e 6886 fc3e a3f5 c3bc 9791 e1be
00000120: 61c4 033e 3ac6 0c3f 21b0 bb3d b79c 163f
00000130: 01a9 01bf 81dc 393f 2a8e c03d 887b f23e
00000140: 58b2 55bb be02 193f d00e c53d cb10 adbe
00000150: cb1e 05bf 2af5 e13e 69dd da3d b35a 7dbe
00000160: 2ae2 46bd 268b 3f3f eb66 053f f579 533e
00000170: 01cf e0be f979 fe3e 8102 0e3f e76a 463e
00000180: 4a17 803f 9d1d a03f a9ce 743c 9b8a 55bc
00000190: ed90 71be 670d bebf c04e e2bc 53ed d93b
000001a0: b6c2 743f 9879 8d3f e266 1bbd 7ccd 98be
000001b0: 3cfe 24be 2424 14bf c253 443c 37c3 88be
000001c0: 3744 463f 03bf 753f 3727 6c3b 0365 f53e
000001d0: 2231 64be 012a 58bf 2235 873d a6e5 d53e
000001e0: 760b da3c b592 c3be da49 1c3d 4fec dc3d
000001f0: 38f5 743e 457b c3bf 31c4 d5bc f334 8c3d
00000200: 56fd 613e ea26 1bbf b561 0fbd baeb 8ebc
00000210: 0852 ea3d f870 1bbf 0710 0abc 0512 97bd
00000220: e423 2fbe 4e52 87bf 9d73 9abc 2058 b0bd
00000230: 0391 093e 16ed 3fbf e78e be3c 4c27 36bd
00000240: 0e18 47be 0d47 f03e bb69 ef3e 548a a7bc
00000250: 0ec6 11bc 31b4 253f 793a f23e dbae f9bd
00000260: 28ae c1be 088b f03e 3a9f d2bd f440 5f3e
00000270: 8e65 893e 9cba 493f 240f cdbd a0f4 8c3e
00000280: a39d 7bbd 8435 e63e 3c32 833e a9f4 b33e
00000290: 874c d23e a0f9 583f d300 8c3e bf67 c03e
000002a0: 1303 01be e3ce 83bf 211c 003d f8bd c73d
000002b0: ce97 b8bd 4c30 223f 04dc 903c dc02 7c3d
000002c0: 9577 bbbe e60b 62bf 5ea9 4cbe 2aa4 333e
000002d0: 95f4 36be fbac 393f c683 2cbe 63bb 593e
000002e0: c7c9 f2be 7e7d 8bbf 8f36 90bd d2bf 1d3e
000002f0: 6fef e7be 0e98 4c3f e954 f2bc 63f1 d13d
00000300: 66b5 b7bd 6019 843f 0631 11be 606a 11be
00000310: 2ecb 08be d787 e3be b89e 13bd f0e7 49be
00000320: 21ef da3e 226c 773f b119 083f eb80 323e
00000330: 3678 f9bd f5a5 03bf d57c 193f a078 ba3d
00000340: 29fe 113f 5a10 403f 2b1f 11be 6caa fbbe
00000350: 32a7 fe3c 0e46 23bf e098 15be ec57 f7be
00000360: 88a1 a43d 45d5 27bd 50d4 303e f789 a93d
00000370: 2897 253e 874a cebe 9817 303e 4964 9b3d
00000380: a8c1 003f 75ba 263e 8703 413d a929 233f
00000390: d7ba a03d 5aca 09bf 2119 883d 2f93 073f
000003a0: 982a 113f bfd4 283e 9257 6fbd aa53 e23d
000003b0: 9b94 1dbd 88f1 1dbf 2678 04bc 3488 2e3e
000003c0: 3e72 523f a9cc 233f b1c7 6f3d 26c2 9a3e
000003d0: a062 083d fc98 bb3d ce6e 0d3d f7e5 b53e
000003e0: dcbb 4d3f d291 243f 2408 02be f81b dd3e
000003f0: 69e5 c7bd 1ff9 cf3d 4c0d 91bd b46b dc3e

fcs1.bias f4 [256]
0.014922481 0.018023375 -0.0029785691 -0.11108571 -0.044235103 0.032720394 -0.06667588 0.13752854
-0.024626246 -0.033813234 -0.078880474 0.07352086 0.13937691 0.12762624 -0.13096027 -0.0125922365
-0.031496868 -0.036096267 -0.13005608 0.1441902 0.11687608 -0.10160299 0.09099081 -0.042557918
0.13170406 -0.0042670723 0.07536236 -0.008983726 -0.042913184 -0.13355313 -0.10836339 0.13632245
0.1339095 0.13864365 0.1048011 -0.1300801 -0.09225048 0.031594742 -0.13338578 -0.0055748676
0.047047734 -0.045086447 0.024914866 0.010083377 -0.055507507 0.017313622 0.030423425 -0.12076134
0.1330671 0.14331284 -0.118590504 -0.034575712 -0.004005092 -0.0012392643 -0.05095063 0.009588281
0.042763792 0.043368664 0.08134276 0.027380181 0.049138293 -0.019338686 -0.037899163 0.06654204
0.11370204 0.0015079542 -0.11194527 0.046515815 -0.11339813 0.046702947 0.13763179 -0.097649746
-0.01996676 0.13521865 0.058321476 0.13792592 -0.0680674 -0.016221188 -0.09883413 -0.07830239
0.031031502 0.11690903 0.12902108 -0.053763323 0.1224055 -0.10296093 -0.13518675 0.019045638
0.13446736 0.11040592 -0.10531115 -0.030092444 0.12770683 0.075487085 0.003067158 -0.06443424
0.09139555 0.121902935 0.09320195 0.06066934 -0.065245494 -0.14024715 0.13006052 0.03373256
0.018203657 0.05411213 -0.05443403 -0.10461667 0.07879285 -0.0174063 -0.13812307 -0.027140684
-0.021690862 -0.10538007 -0.11427218 -0.033374116 -0.1199051 0.07333832 -0.1394064 -0.06551924
-0.1050307 -0.051308256 -0.14319384 -0.040412195 -0.09573687 0.088733524 -0.12057492 0.13542035
0.13578117 0.037990537 -0.013076555 -0.085514724 -0.064154014 -0.09766004 0.021841973 0.13688914
-0.048278745 -0.05990672 0.032044128 -0.13509539 -0.04906108 -0.10042136 -0.10388588 -0.043579385
0.1120901 0.061406996 0.040146086 0.12030302 0.08429281 -0.001703593 0.035764527 -0.019915517
0.07057379 0.03236507 0.05765053 -0.13503152 -0.019564595 0.07674067 0.054028444 0.035979223
-0.05869803 0.09348038 -0.030898897 -0.07832843 -0.103076205 0.0012705995 -0.113972634 0.090300605
0.019191492 -0.030572906 0.12476112 -0.0025223878 0.01706808 0.094623886 0.024394639 0.0007158237
0.13202327 -0.11084932 0.07136339 0.036602363 -0.022391174 0.047185477 0.011822038 -0.089771055
-0.0975452 -0.072448514 0.13029748 0.11271358 -0.015433318 0.0728541 0.08740353 0.121615246
0.038231973 0.11012472 -0.038655378 0.03037456 -0.087936714 -0.12052331 -0.031282775 -0.116206504
0.04793957 0.09480843 0.029011456 -0.1381523 0.061304666 0.12884313 0.022930257 -0.13069129
-0.02950031 0.14010029 -0.08263274 -0.11135461 0.10665702 0.11128786 0.0017007283 0.13508302
-0.12452231 0.08888731 -0.13614622 -0.04411399 0.11487603 -0.07094699 -0.107852794 0.025264395
0.14346021 -0.053052112 -0.1281208 0.08188476 0.11815745 -0.09247198 -0.073100254 0.0695747
0.032449037 -0.110993326 -0.028153187 0.026410548 0.014556135 0.106711686 0.07798034 0.015097798
0.10243831 -0.13632758 0.024752008 -0.0040119123 -0.091890894 -0.025434278 -0.044142414 -0.13876657
0.010806185 0.14385152 -0.09715524 -0.016564755 -0.032954156 -0.08061952 0.0650046 -0.1381935
00000000: 6c7d 743c c2a5 933c 1934 43bb e880 e3bd
00000010: de2f 35bd d205 063d 5d8d 88bd 48d4 0c3e
00000020: fbbc c9bc bf7f 0abd 168c a1bd 1b92 963d
00000030: d2b8 0e3e 74b0 023e 731a 06be ab4f 4ebc
00000040: dc02 01bd aed9 13bd 6c2d 05be 99a6 133e
00000050: ba5c ef3d 3a15 d0bd 6459 ba3d 3651 2ebd
00000060: 6edd 063e ccd2 8bbb 9557 9a3d 7a30 13bc
00000070: bcc5 2fbd 27c2 08be a0ed ddbd 1d98 0b3e
00000080: 921f 093e 9af8 0d3e f6a1 d63d b833 05be
00000090: d2ed bcbd 7d69 013d 4896 08be 61ad b6bb
000000a0: 20b5 403d 91ac 38bd 431a cc3c c034 253c
000000b0: d75b 63bd 4cd5 8d3c 8c3a f93c b951 f7bd
000000c0: be42 083e 9ac0 123e 94df f2bd 439f 0dbd
000000d0: 263d 83bb cf6e a2ba 9cb1 50bd 2a18 1d3c
000000e0: 1629 2f3d 57a3 313d 0897 a63d 674c e03c
000000f0: 3c45 493d 2a6c 9ebc 273c 1bbd 3147 883d
00000100: 9ddc e83d 8ca6 c53a 9043 e5bd 5e87 3e3d
00000110: 473d e8bd 974b 3f3d 59ef 0c3e 97fc c7bd
00000120: 5591 a3bc c276 0a3e 80e2 6e3d 743c 0d3e
00000130: ec66 8bbd 4ce2 84bc 8c69 cabd 015d a0bd
00000140: c735 fe3c 006e ef3d 1a1e 043e ee36 5cbd
00000150: bcaf fa3d 2edd d2bd 656e 0abe 9905 9c3c
00000160: d0b1 093e 801c e23d 5fad d7bd 6e84 f6bc
00000170: 94c5 023e f998 9a3d 5f02 493b 19f6 83bd
00000180: 972d bb3d 3fa8 f93d aae0 be3d 6a80 783d
00000190: 6e9f 85bd f39c 0fbe 962e 053e 272b 0a3d
000001a0: d61f 953c aea4 5d3d 38f6 5ebd 4441 d6bd
000001b0: 255e a13d a897 8ebc 2270 0dbe 2456 debc
000001c0: 09b1 b1bc 82d1 d7bd 8807 eabd 4cb3 08bd
000001d0: ce90 f5bd 6732 963d 8dc0 0ebe f42e 86bd
000001e0: 561a d7bd 9b28 52bd 68a1 12be 4287 25bd
000001f0: b111 c4bd ecb9 b53d fcef f6bd a2ab 0a3e
00000200: 380a 0b3e f79b 1b3d 0c3f 56bc 5822 afbd
00000210: 2e63 83bd fd01 c8bd f0ed b23c ab2c 0c3e
00000220: efbf 45bd c060 75bd b440 033d 7256 0abe
00000230: 45f4 48bd b7a9 cdbd 1fc2 d4bd 4c80 32bd
00000240: 7f8f e53d e785 7b3d 3970 243d 6e61 f63d
00000250: b5a1 ac3d 184b dfba d37d 123d de25 a3bc
00000260: fe88 903d 3c91 043d f622 6c3d b445 0abe
00000270: ee45 a0bc 362a 9d3d ee4c 5d3d f35e 133d
00000280: 586d 70bd a472 bf3d af1f fdbc a86a a0bd
00000290: 9e19 d3bd 3f8a a63a 7c6a e9bd 86ef b83d
000002a0: 7a37 9d3c 0874 fabc c282 ff3d a54e 25bb
000002b0: 5cd2 8b3c 2bca c13d 44d7 c73c 1ea6 3b3a
000002c0: 1c31 073e f804 e3bd f826 923d 5cec 153d
000002d0: b26d b7bc 8f45 413d 39b1 413c e3d9 b7bd
000002e0: c7c5 c7bd e35f 94bd b46c 053e 61d6 e63d
000002f0: 07dc 7cbc 8834 953d 9f00 b33d 6a11 f93d
00000300: 2199 1c3d 1289 e13d 1a55 1ebd 12d4 f83c
00000310: 2a18 b4bd edd4 f6bd 5e22 00bd adfd edbd
00000320: 485c 443d ec2a c23d 6fa9 ed3c cc77 0dbe
00000330: 9a1a 7b3d 74ef 033e 3cd8 bb3c f0d3 05be
00000340: a2aa f1bc 7376 0f3e 5b3b a9bd e30d e4bd
00000350: ff6e da3d e4ea e33d f9ea de3a 3453 0a3e
00000360: 8e05 ffbd 8d0a b63d ea69 0bbe dfb0 34bd
00000370: 2044 eb3d a84c 91bd ede1 dcbd 47f7 ce3c
00000380: 3ce7 123e 2c4d 59bd 1932 03be 32b3 a73d
00000390: 88fc f13d f361 bdbd 96b5 95bd 2e7d 8e3d
000003a0: 48e9 043d 7850 e3bd 83a1 e6bc ef5a d83c
000003b0: db7c 6e3c a88b da3d 28b4 9f3d c15c 773c
000003c0: 2dcb d13d 7599 0bbe b9c4 ca3c 5c76 83bb
000003d0: 4b31 bcbd 8c5b d0bc adce 34bd d318 0ebe
000003e0: 6d0c 313c d04d 133e 54f9 c6bd cfb2 87bc
000003f0: f0fa 06bd d91b a5bd 2221 853d 9982 0dbe

fc2.weight f4 [128, 260]
-0.26517123 -0.24781115 -0.32155058 0.29711252 -0.06046991 0.082451575 -0.20950383 -0.31425014
-0.5034678 -0.40321255 -0.30249178 0.08148214 -0.20509058 0.075324334 -0.41606045 -0.21352763
-0.74299574 0.31392676 -0.060509756 -0.09151458 0.028110355 0.5319026 0.10423885 -0.3021086
-0.061532225 0.18555209 0.0025150487 -0.8507355 -0.03954725 -0.2865509 -0.15842876 -0.16140372
-0.06464899 0.3656078 0.008271068 0.33870596 -0.047383845 -0.105084404 -0.0089521585 0.16433404
0.12706897 -0.3607586 -0.8931786 0.045733806 -0.63958085 0.060911644 0.5990981 -0.13672478
-0.03194673 -0.64057714 0.06867544 -0.28211537 0.06494438 -0.29243633 -0.07626448 -0.14277595
0.19887961 0.0031392353 0.07211154 -0.078552015 0.319237 -0.07718051 -0.47013298 -0.15653554
0.22012484 0.30022138 -0.27593398 -0.16771394 -0.3744597 -0.32995632 -0.14320888 0.57935655
-0.047405507 0.54729635 -0.04067039 -0.10966157 0.0043299203 -0.519677 -0.51075816 -0.07175875
-0.3458307 -0.006218843 -0.1599718 -0.056019306 0.2297755 0.16876453 0.6461779 -0.13904537
-0.16739178 -0.015597593 0.29793215 0.016997514 -0.08248593 0.36154574 -0.044357873 -0.020146511
-0.6627457 -0.24700972 -0.07255085 -0.16456217 -0.3691984 -0.1308179 0.15042171 -0.49037242
0.27131537 0.015872957 0.49258125 0.43385467 0.3316254 -0.17431037 -0.18348917 -0.68643403
-0.70821494 -0.5691501 -0.65924776 -1.344507 -0.32060128 -0.43448228 -0.058568105 -0.0020473062
0.34645885 0.08549374 0.031523786 -0.31040654 -0.23335211 -0.3338568 -0.0781868 0.18644206
0.041096296 0.012289046 0.099665284 -0.43363726 -0.029782794 0.21611936 0.57488847 0.049754847
0.03480128 0.005951174 0.677215 -0.09776992 0.16015016 -0.1175298 0.07720374 -0.37682992
0.27711332 -0.19425496 -0.17046303 -0.10713812 0.0036224287 0.08110174 0.044086047 -1.1094174
-0.011647787 0.004017733 -0.072996855 -0.3948624 -0.19019799 0.118759826 0.09547256 0.2694342
-0.33972505 -0.1210697 -0.37873664 -0.33188054 -0.23318245 -0.053790666 0.22418703 0.035591137
0.4401912 -0.98488426 0.047046624 -0.6611085 -0.2385653 0.33257556 -0.5434669 -0.32036674
0.28893828 -0.17913681 -0.40981945 0.025624745 0.24665125 0.30482996 -0.07069078 0.17103074
0.48794532 0.015873369 0.00019467167 0.1132045 0.2282929 0.00050678366 0.055982266 -0.31495404
-0.5062902 0.045588996 -0.169188 -1.1046281 0.19475132 -0.29606625 -0.48313048 0.28506896
-0.5062051 -0.8182125 -0.42066026 -0.1046403 0.16510445 -0.71015894 -0.68021166 -0.027268669
-0.5020555 -0.6034288 0.068907045 -0.91677564 0.07161866 -1.0810136 0.23159736 -0.06322548
-0.07045996 -0.38509545 0.042026654 -0.102972284 -0.045829955 0.114968054 0.13928083 0.13354737
0.07984116 -0.33324385 -0.020159405 0.049756993 0.2799843 -0.20097041 -0.01880836 -0.20987445
-0.38443753 0.012169799 -0.016042247 -0.19176185 -0.61090225 0.01458481 -0.3619476 -0.15814988
0.06435439 -0.09946028 0.2661518 -0.30436122 0.36383757 0.09107468 0.38080186 -0.2224966
0.07162841 -0.27961197 -0.07484051 0.1408802 0.0063021216 -0.45768094 -0.09899236 0.04162543
00000000: 86c4 87be 35c2 7dbe 47a2 a4be 221f 983e
00000010: 4caf 77bd 5fdc a83d 2c88 56be 65e5 a0be
00000020: 44e3 00bf e071 cebe 34e0 9abe 1ce0 a63d
00000030: 4403 52be a543 9a3d e005 d5be fda6 5abe
00000040: f834 3ebf 02bb a03e 14d9 77bd ff6b bbbd
00000050: b047 e63c c52a 083f 2e7b d53d faad 9abe
00000060: 3709 7cbd 5e01 3e3e 84d3 243b cdc9 59bf
00000070: 4cfc 21bd cdb6 92be 263b 22be 0447 25be
00000080: b166 84bd f230 bb3e 6083 073c de6a ad3e
00000090: 9015 42bd 7e36 d7bd 13ac 12bc 2f47 283e
000000a0: 5e1e 023e 5ab5 b8be 5aa7 64bf 5f53 3b3d
000000b0: 92bb 23bf 7d7e 793d 7e5e 193f 9501 0cbe
000000c0: 93da 02bd ddfc 23bf b6a5 8c3d 6d71 90be
000000d0: 8f01 853d 37ba 95be 8d30 9cbd dc33 12be
000000e0: 19a7 4b3e a1bb 4d3b 37af 933d e1df a0bd
000000f0: 0873 a33e d110 9ebd 45b5 f0be da4a 20be
00000100: 6868 613e 9eb6 993e 3847 8dbe 34bd 2bbe
00000110: 2fb9 bfbe 09f0 a8be 59a5 12be b650 143f
00000120: 472c 42bd 9d1b 0c3f ff95 26bd 3f96 e0bd
00000130: 01e2 8d3b 8d09 05bf 0cc1 02bf 40f6 92bd
00000140: b910 b1be 70c7 cbbb a6cf 23be 8074 65bd
00000150: 454a 6b3e 9cd0 2c3e ea6b 253f e961 0ebe
00000160: c068 2bbe 0c8d 7fbc 908a 983e 5f3e 8b3c
00000170: 62ee a8bd 861c b93e 9ab0 35bd 4c0a a5bc
00000180: b4a9 29bf 1ef0 7cbe 8a95 94bd fc82 28be
00000190: 9307 bdbe 21f5 05be 2608 1a3e 1812 fbbe
000001a0: d9e9 8a3e 0108 823c 9c33 fc3e 3322 de3e
000001b0: ceca a93e 6b7e 32be 96e4 3bbe 24ba 2fbf
000001c0: 934d 35bf d2b3 11bf 76c4 28bf ce18 acbf
000001d0: da25 a4be 7674 debe 1ce5 6fbd 192c 06bb
000001e0: 0e63 b13e 5817 af3d 161f 013d 9bed 9ebe
000001f0: dbf3 6ebe 47ef aabe 6720 a0bd abea 3e3e
00000200: 9754 283d ff57 493c 501d cc3d b405 debe
00000210: 0cfb f3bc 654e 5d3e e42b 133f bdcb 4b3d
00000220: c98b 0e3d 1102 c33b f65d 2d3f 993b c8bd
00000230: 67fe 233e 77b3 f0bd ff1c 9e3d daef c0be
00000240: cce1 8d3e c6ea 46be dc8d 2ebe 3b6b dbbd
00000250: 4566 6d3b ab18 a63d 9293 343d 6401 8ebf
00000260: 5cd6 3ebc 30a7 833b 607f 95bd 682b cabe
00000270: 43c3 42be 5a38 f33d 1e87 c33d 48f3 893e
00000280: 71f0 adbe 64f3 f7bd c5e9 c1be 3fec a9be
00000290: 61c7 6ebe 9a53 5cbd 4991 653e 03c8 113d
000002a0: be60 e13e 6021 7cbf f6b3 403d 683e 29bf
000002b0: 764a 74be 5847 aa3e a620 0bbf 1c07 a4be
000002c0: b8ef 933e a46f 37be dbd3 d1be fcea d13c
000002d0: 2592 7c3e ac12 9c3e 54c6 90bd af22 2f3e
000002e0: f8d3 f93e de08 823c c720 4c39 c3d7 e73d
000002f0: 9dc5 693e add9 043a a94d 653d a841 a1be
00000300: 3c9c 01bf 87bb 3a3d 9e3f 2dbe 7464 8dbf
00000310: e46c 473e ff95 97be e15c f7be 8ff4 913e
00000320: a896 01bf 6076 51bf c860 d7be a74d d6bd
00000330: 2411 293e facc 35bf 5a22 2ebf 8b62 dfbc
00000340: b686 00bf 4f7a 1abf 231f 8d3d cfb1 6abf
00000350: ceac 923d a75e 8abf dc27 6d3e 5c7c 81bd
00000360: 504d 90bd 3b2b c5be 2424 2c3d 22e3 d2bd
00000370: 31b8 3bbd 5f74 eb3d a29f 0e3e a4c0 083e
00000380: c383 a33d f09e aabe 5625 a5bc fdcd 4b3d
00000390: 1a5a 8f3e 30cb 4dbe fd13 9abc 54e9 56be
000003a0: ffd4 c4be d663 473c 086b 83bc 385d 44be
000003b0: 1764 1cbf 20f5 6e3c 3251 b9be 0bf2 21be
000003c0: 3ccc 833d d5b1 cbbd 0c45 883e 3cd5 9bbe
000003d0: eb48 ba3e 5d85 ba3d 76f8 c23e 26d6 63be
000003e0: eab1 923d 4d29 8fbe fb45 99bd e642 103e
000003f0: 0782 ce3b 2855 eabe 82bc cabd 6d7f 2a3d

fc2.bias f4 [128]
0.12102869 -0.11721737 -0.5230901 0.064357065 -0.088093534 0.14091292 -0.11965629 -0.029792069
0.096306354 -0.10583881 -0.24780114 0.09995384 -0.058936093 -0.09134614 -0.11009211 -0.21996921
0.011118479 -0.86742246 -0.08042494 -0.27461788 -0.11738935 -0.048104856 -0.19400907 -0.081417546
-0.1557947 -0.11764214 -0.1390926 -0.13079864 -0.38519198 -0.0061947987 -0.15885995 -0.12158704
-0.1689104 0.041077346 0.46929094 -0.15618418 0.06494017 0.05596149 -0.011923987 -0.42342973
-0.44119188 -0.0697951 -0.096800834 -0.1078839 -0.11516812 -0.08184967 -0.049587112 -0.22950567
-0.027055826 -0.14453538 -0.1016821 -0.11986864 -0.26598555 -0.16933557 -0.028351298 -0.07557752
-0.007685915 0.003722449 -0.08557513 -0.048197284 0.5523501 -0.17311218 -0.04835235 -0.10053984
-0.16392754 -0.19673629 -0.15145235 -0.350248 -0.2761248 -0.059737112 -0.11958722 -0.18093243
-0.094998054 -0.2024101 -0.37728137 -0.33860913 -0.056154113 0.07687253 -0.12247845 -0.11048139
-0.1036096 -0.08130656 -0.21582682 0.5615795 -0.09684618 0.032495007 0.0911271 0.101026826
0.12029318 -0.14926444 0.06363288 -0.049277816 -0.0629565 -0.09885099 -0.109912194 -0.20918183
-0.08336232 0.37188807 -0.114523284 -0.11500631 -0.13012691 -0.046415754 -0.090325944 -0.12561351
0.034341514 0.1367964 -0.13237227 0.050498508 -0.12532265 0.4248618 -0.1853443 -0.05964733
0.1213634 -0.080955 -0.09126086 0.093867816 0.009352844 -0.16823515 -0.22783881 0.074543476
-0.121862225 -0.10008675 0.45226586 -0.16194504 0.47457808 -0.15564562 -0.11066023 -0.16135092
00000000: e4dd f73d a90f f0bd 3ce9 05bf a3cd 833d
00000010: 626a b4bd 7a4b 103e 5b0e f5bd 7f0e f4bc
00000020: 443c c53d 05c2 d8bd 95bf 7dbe 99b4 cc3d
00000030: f966 71bd af13 bbbd f977 e1bd 9c3f 61be
00000040: 482a 363c 660f 5ebf d5b5 a4bd b79a 8cbe
00000050: d469 f0bd 9909 45bd 50aa 46be 3ebe a6bd
00000060: a588 1fbe 5dee f0bd 4a6e 0ebe 14f0 05be
00000070: e237 c5be bdfd cabb 2fac 22be a002 f9bd
00000080: d9f6 2cbe b840 283d e746 f03e bfee 1fbe
00000090: 5aff 843d e037 653d d45c 43bc c8cb d8be
000000a0: e7e3 e1be bcf0 8ebd 843f c6bd 3cf2 dcbd
000000b0: 43dd ebbd cda0 a7bd db1b 4bbd 8903 6bbe
000000c0: 2ea4 ddbc 1501 14be b43e d0bd b17d f5bd
000000d0: 422f 88be 4e66 2dbe fb40 e8bc 63c8 9abd
000000e0: 21da fbbb 55f4 733b 0442 afbd 846a 45bd
000000f0: d166 0d3f 5244 31be 1d0d 46bd d5e7 cdbd
00000100: 9fdc 27be 3d75 49be 5316 1bbe b553 b3be
00000110: 3b60 8dbe e7ae 74bd 25ea f4bd 5a46 39be
00000120: 578e c2bd 9844 4fbe 062b c1be 2d5e adbe
00000130: db01 66bd 586f 9d3d fbd5 fabd 1144 e2bd
00000140: 4531 d4bd 0e84 a6bd b501 5dbe adc3 0f3f
00000150: 4a57 c6bd 7c19 053d d8a0 ba3d 27e7 ce3d
00000160: 455c f63d c7d8 18be f551 823d 89d7 49bd
00000170: 56ef 80bd 6372 cabd a519 e1bd c333 56be
00000180: ddb9 aabd 1d68 be3e 2f8b eabd 6e88 ebbd
00000190: fd3f 05be 721e 3ebd cffc b8bd d4a0 00be
000001a0: b0a9 0c3d 5b14 0c3e 998c 07be 86d7 4e3d
000001b0: 9554 00be 7c87 d93e e5ca 3dbe c250 74bd
000001c0: 608d f83d bccb a5bd f9e6 babd c53d c03d
000001d0: ac3c 193c d645 2cbe 944e 69be 40aa 983d
000001e0: e792 f9bd 48fa ccbd 648f e73e ecd4 25be
000001f0: e6fb f23e 9161 1fbe d5a1 e2bd 2d39 25be

fc3.weight f4 [1, 128]
0.015979365 0.0046219677 -0.017175427 0.033808146 0.014550943 -0.028456476 0.019634308 -0.047665577
0.093728945 0.008968814 0.1080967 0.06679426 -0.0543867 0.009042581 0.0649377 -0.06735241
0.12044767 0.04215409 -0.0007084752 -0.08472857 -0.054104812 -0.073267266 -0.0028003072 -0.017651249
-0.016222883 -0.015625706 0.010290075 0.028155202 -0.05983924 0.055162314 -0.025233679 0.0010847329
0.007423315 -0.03180011 -0.034056228 -0.073601656 0.052729905 -0.074203245 -0.04857285 0.06562366
-0.06619768 -0.02664922 0.009685596 -0.0063644117 -0.023625497 -0.07313459 -0.024718149 -0.051855255
-0.028392892 0.00081929506 0.017473705 -0.0020257742 -0.09217932 0.017306557 -0.0035696542 0.02325008
0.11933538 -0.01795362 -0.017372409 -0.02535202 0.050936554 0.051105406 -0.016512569 0.008362542
-0.017474392 0.0037479622 -0.008680273 -0.07764385 0.13267152 -0.00396902 -0.013835599 0.20641074
0.10178635 -0.040239774 -0.020315459 -0.054667473 0.004944058 0.101247095 -0.026740499 -0.008893329
-0.028063199 -0.07276292 -0.04238416 -0.048606053 0.09338976 -0.041511975 0.1645267 0.082069464
0.13714013 0.13080022 0.06146316 -0.02606268 -0.013389756 0.13415621 0.006398752 -0.059127986
-0.025979452 -0.035163578 0.0006837538 0.014062913 -0.015501029 0.024523478 0.017754765 0.0022055877
-0.01925334 -0.015513789 -0.010593789 0.10423444 0.013005669 0.03434761 -0.06794171 0.020197289
-0.04439102 -0.018681416 -0.08541201 0.042126853 0.10789459 0.10258852 -0.05966551 0.07281609
-0.0825783 0.022321977 0.044494458 -0.06259788 -0.023556203 -0.06890311 -0.0034085906 -0.0926554
00000000: 28e7 823c e073 973b 7bb3 8cbc 697a 0a3d
00000010: 1467 6e3c 8e1d e9bc 21d8 a03c fb3c 43bd
00000020: f6f4 bf3d eff1 123c cd61 dd3d 6ecb 883d
00000030: 97c4 5ebd 5527 143c 0ffe 843d 0ff0 89bd
00000040: 45ad f63d c4a9 2c3d f7b8 39ba 2c86 adbd
00000050: 029d 5dbd 260d 96bd 5c85 37bb 5a99 90bc
00000060: dae5 84bc 7b01 80bc b497 283c bda5 e63c
00000070: fe19 75bd e1f1 613d dcb6 cebc 992d 8e3a
00000080: 483f f33b d540 02bd 8b7e 0bbd 77bc 96bd
00000090: 50fb 573d dff7 97bd 53f4 46bd b365 863d
000000a0: a692 87bd 774f dabc 56b0 1e3c 8e8c d0bb
000000b0: 428a c1bc 97c7 95bd b77d cabc 2d66 54bd
000000c0: 3698 e8bc f6c5 563a 0425 8f3c dac2 04bb
000000d0: 83c8 bcbd 7bc6 8d3c dcf0 69bb f476 be3c
000000e0: 1c66 f43d 7813 93bc 9550 8ebc 0aaf cfbc
000000f0: d9a2 503d e753 513d 5e45 87bc 0b03 093c
00000100: 7526 8fbc 5fa0 753b b437 0ebc bd03 9fbd
00000110: 0bdb 073e 8e0e 82bb b5ae 62bc 565d 533e
00000120: 5d75 d03d 76d2 24bd 9b6c a6bc 00eb 5fbd
00000130: c401 a23b a35a cf3d e40e dbbc 53b5 11bc
00000140: cbe4 e5bc ba04 95bd 039b 2dbd 2417 47bd
00000150: 2143 bf3d 7608 2abd b079 283e 0914 a83d
00000160: 766e 0c3e 7ef0 053e cbc0 7b3d 6781 d5bc
00000170: b560 5bbc 3f60 093e 9fac d13b 3030 72bd
00000180: dcd2 d4bc af07 10bd f13d 333a 2268 663c
00000190: 07f8 7dbc 76e5 c83c 7172 913c 9f8b 103b
000001a0: 2eb9 9dbc 8c2d 7ebc 9291 2dbc de78 d53d
000001b0: bb15 553c 14b0 0c3d 0625 8bbd c974 a53c
000001c0: 5cd3 35bd c509 99bc 7eec aebd 358d 2c3d
000001d0: d7f7 dc3d ee19 d23d d263 74bd 9a20 953d
000001e0: d01e a9bd 94dc b63c d23f 363d 5133 80bd
000001f0: f0f8 c0bc 131d 8dbd a962 5fbb 1dc2 bdbd

bn.weight f4 [256]
0.3831868 0.4034122 0.534701 0.27292243 0.27753484 0.28901732 0.15252626 0.4194716
0.20767668 0.28011954 0.25089 0.23884499 0.25963566 0.3404643 0.6881801 0.1299289
0.39941332 0.26622257 0.27401558 0.28137276 0.2952967 0.90655136 0.38135213 0.28197944
0.4978631 0.42334977 0.2949273 0.35595942 0.2553158 0.47075918 0.28438807 0.4073234
0.3214409 0.38114086 0.30373827 0.13755164 -0.008017532 0.30626234 0.23211044 0.68402594
0.21578108 0.48687136 0.33412346 0.27560857 0.42609352 0.4260459 0.1991319 0.29039428
0.28366718 0.30674678 0.15318337 0.35210797 0.23496084 0.18139157 0.26881793 0.27271196
0.5732634 0.42713785 0.2369318 0.39941192 0.29230157 0.20639727 0.23484851 0.21611786
0.2732222 0.519003 0.3374936 0.66056544 0.32459897 0.37186703 0.2957578 0.49458098
0.2612876 0.3087138 0.38387766 0.2758355 0.25779727 0.40655842 0.965379 0.25690794
0.43033695 0.002729441 0.4516278 0.32975978 0.21514079 0.3583295 0.32563093 0.35266373
0.425588 0.43528184 0.5702329 0.20663424 0.30169818 0.30593002 0.24241747 0.4616275
0.41309205 0.3933434 0.29645067 0.12943742 0.26913995 0.27480486 0.2237378 0.49932232
0.4272778 0.30649507 0.26400748 0.32788298 0.42042896 0.1564832 0.39893788 0.82521224
0.7209531 0.45976767 0.30186135 0.19572462 0.31372675 0.19120805 0.3701863 0.41524446
0.40985423 1.5291567 0.0029849901 0.9260585 0.38132522 0.33029947 0.93367195 0.25821924
0.009900881 1.3394765 0.2583789 0.70104027 0.29806185 0.2646983 0.27458078 0.32564455
0.13677345 0.24221307 0.419228 0.31834677 0.49314004 0.40371424 0.13573894 0.4287516
0.5961806 0.295752 0.3337816 0.3846019 0.8457394 0.32752797 0.35391557 0.6215629
0.23458342 0.2573232 0.28549153 0.5768178 0.2937434 0.42462704 0.33640978 0.35665816
0.22135614 0.10572318 0.10805752 0.32875496 0.41961285 0.26397672 0.21934736 0.22734128
0.3795166 0.394277 0.97962266 0.29638833 0.2133357 0.21755105 0.45170036 0.41532883
0.36665192 0.12464258 0.69137526 0.3430949 0.312728 0.27884796 0.23766589 0.26129365
0.46661684 0.18506573 0.32539254 0.44131315 0.22444132 -0.0031826477 0.43387705 0.43313214
0.29543948 0.23235609 0.423001 1.0515094 0.2665536 0.42934456 0.2448082 0.3776292
0.58522034 0.3771955 0.3616626 0.07506397 0.34416345 0.48448282 0.25175923 0.29332557
0.22816798 0.47488478 0.32938305 0.8183844 0.7517646 0.37018335 0.31637266 0.1650701
0.36629474 0.22712861 0.23462936 0.27740234 -0.011523602 0.40684116 0.36068118 0.3354462
0.28901702 0.33225214 0.20527482 0.0044668554 0.42084852 0.48623046 0.33432442 0.87650526
0.548046 0.48799422 0.236986 0.2976096 0.6009272 0.012815893 0.37074518 0.28811067
0.30181944 0.61188036 0.47118208 0.34371305 0.29126027 0.26882246 0.26998472 0.43983203
0.50291234 0.23885489 0.22843717 0.31873974 0.0044031 0.27858514 0.30062363 0.3274057
00000000: 0f31 c43e 0b8c ce3e 2ae2 083f 7dbc 8b3e
00000010: 0c19 8e3e 14fa 933e d82f 1c3e fbc4 d63e
00000020: 32a9 543e d46b 8f3e a774 803e c893 743e
00000030: f7ee 843e 5651 ae3e 922c 303f 150c 053e
00000040: e77f cc3e 534e 883e c54b 8c3e 1710 903e
00000050: 2131 973e c013 683f 9640 c33e 9c5f 903e
00000060: eae7 fe3e 4dc1 d83e b600 973e 5040 b63e
00000070: c1b8 823e 5907 f13e 509b 913e b18c d03e
00000080: e793 a43e e524 c33e 9583 9b3e 56da 0c3e
00000090: f75b 03bc 6bce 9c3e 5cae 6d3e 531c 2f3f
000000a0: b7f5 5c3e 3447 f93e 3b12 ab3e 911c 8d3e
000000b0: ee28 da3e b022 da3e 3ce9 4b3e 8fae 943e
000000c0: d33c 913e ea0d 9d3e 1adc 1c3e 7f47 b43e
000000d0: 9399 703e b6be 393e 81a2 893e e7a0 8b3e
000000e0: 64c1 123f d0b1 da3e 409e 723e b87f cc3e
000000f0: 8da8 953e ce59 533e 217c 703e 004e 5d3e
00000100: c8e3 8b3e 61dd 043f f6cb ac3e d11a 293f
00000110: d631 a63e 5b65 be3e 916d 973e b839 fd3e
00000120: 7dc7 853e bc0f 9e3e 9d8b c43e 503a 8d3e
00000130: 01fe 833e 6d28 d03e 1423 773f 7089 833e
00000140: 2055 dc3e 6ce0 323b c23b e73e 46d6 a83e
00000150: de4d 5c3e f776 b73e 19b9 a63e 5790 b43e
00000160: ace6 d93e 43dd de3e c9fa 113f ed97 533e
00000170: 2f78 9a3e dca2 9c3e 493c 783e 715a ec3e
00000180: cd80 d33e 4e64 c93e 62c8 973e 3e8b 043e
00000190: b6cc 893e 39b3 8c3e 861b 653e 2da7 ff3e
000001a0: 28c4 da3e ecec 9c3e fd2b 873e 47e0 a73e
000001b0: 7742 d73e 223d 203e 9641 cc3e 1c41 533f
000001c0: 6290 383f ab66 eb3e 928d 9a3e 096c 483e
000001d0: cba0 a03e 0bcc 433e 0f89 bd3e ec9a d43e
000001e0: 6ad8 d13e 68bb c33f d39f 433b 2b12 6d3f
000001f0: 0f3d c33e 031d a93e 2005 6f3f 5035 843e
00000200: 4e37 223c f773 ab3f 3d4a 843e 6077 333f
00000210: 909b 983e 8986 873e da95 8c3e e2ba a63e
00000220: 570e 0c3e b406 783e 0da5 d63e 59fe a23e
00000230: da7c fc3e a2b3 ce3e 26ff 0a3e 5485 db3e
00000240: 4b9f 183f ce6c 973e 6ce5 aa3e 8aea c43e
00000250: 6182 583f bfb1 a73e 6c34 b53e bf1e 1f3f
00000260: a336 703e debf 833e f22b 923e 55aa 133f
00000270: 8965 963e b768 d93e e73d ac3e e69b b63e
00000280: 2fab 623e 6585 d83d 434d dd3d 9252 a83e
00000290: 7fd7 d63e f527 873e 989c 603e 27cc 683e
000002a0: 0050 c23e adde c93e 8dc8 7a3f 36c0 973e
000002b0: ac74 5a3e b4c5 5e3e 4545 e73e fba5 d43e
000002c0: cdb9 bb3e 9c44 ff3d f8fd 303f 22aa af3e
000002d0: e21d a03e 29c5 8e3e b05e 733e 48c8 853e
000002e0: 67e8 ee3e df81 3d3e da99 a63e ccf3 e13e
000002f0: f2d3 653e f893 50bb 2225 de3e 7fc3 dd3e
00000300: d843 973e c1ee 6d3e 9693 d83e dc97 863f
00000310: b779 883e 0dd3 db3e 00af 7a3e 9d58 c13e
00000320: 00d1 153f c51f c13e d72b b93e 24bb 993d
00000330: 3136 b03e 220e f83e 96e6 803e c52e 963e
00000340: dea4 693e 1924 f33e e5a4 a83e a481 513f
00000350: a573 403f ac88 bd3e 99fb a13e 2308 293e
00000360: fc8a bb3e 6794 683e ae42 703e ae07 8e3e
00000370: 7dcd 3cbc 7c4d d03e 34ab b83e 9bbf ab3e
00000380: 0afa 933e f41c aa3e 9033 523e b35e 923b
00000390: 7579 d73e 33f3 f83e 922c ab3e a662 603f
000003a0: be4c 0c3f 61da f93e 75ac 723e 4960 983e
000003b0: 5dd6 193f c0f9 513c 50d2 bd3e 3e83 933e
000003c0: 1488 9a3e 31a4 1c3f c73e f13e 28fb af3e
000003d0: 1120 953e 19a3 893e 703b 8a3e aa31 e13e
000003e0: ddbe 003f 6096 743e 6feb 693e db31 a33e
000003f0: e147 903b b6a2 8e3e 57eb 993e b8a1 a73e

bn.bias f4 [256]
-0.3190651 -0.5174828 -0.5394327 -0.25054848 -0.1385753 -0.36173543 -0.10829547 -0.42135304
0.06822428 -0.0031003882 -0.26893345 -0.24273951 -0.2190693 -0.32262293 -0.10950642 -0.034115728
0.004528477 -0.32116926 -0.40872398 -0.10403404 -0.15477178 -0.5505306 -0.26210976 -0.34534237
-0.6508158 -0.41843233 -0.21709643 -0.37756294 -0.25886095 -0.48055243 -0.16740182 -0.36040068
-0.1337707 -0.39299557 -0.14858218 -0.049618557 -0.032194413 -0.16747475 -0.16788311 -0.35941568
-0.16579859 -0.3129551 -0.2952481 -0.06446205 -0.2500494 -0.19921522 0.02193723 -0.24578467
-0.21250613 -0.23449688 0.034559526 -0.10871158 -0.2698797 -0.023323242 -0.12267964 -0.28363073
-0.57080686 -0.41071427 -0.17682405 -0.36728832 -0.14620827 -0.09858025 -0.34856185 -0.14048357
-0.34667423 -0.38858983 -0.43382472 -0.44463116 -0.48528463 -0.34184143 -0.31245908 -0.5100899
-0.16818492 -0.4086236 -0.5560977 -0.3005088 0.004060698 -0.14831132 -0.10631108 -0.43565193
-0.47495273 -0.0120318085 -0.5016399 -0.40308675 -0.07280092 -0.319958 -0.36098891 -0.31133038
-0.48774162 -0.24960499 -0.033712026 -0.1081169 -0.24702768 -0.18758151 0.02452209 -0.27551052
-0.3621163 -0.39231277 -0.19668703 -0.13104416 -0.25976405 -0.21530892 -0.16477777 -0.3584923
-0.3194331 -0.4827885 -0.2618873 -0.12621455 -0.34984764 -0.12449165 -0.33824146 -0.76314276
-0.5314096 -0.3569574 -0.22763892 -0.18131344 -0.31601974 -0.14258483 -0.5480788 0.05446761
-0.7158149 0.18526502 -0.03282298 -0.30134222 -0.25729412 -0.2867605 -0.31410676 -0.41493112
-0.03936813 -0.47554404 -0.26668093 -0.14354719 -0.18015188 -0.23757982 -0.3485761 -0.48457414
-0.030293219 -0.32503748 -0.4174995 -0.21478158 -0.41316417 -0.49881142 -0.03171875 -0.55778337
-0.36397597 -0.3949795 -0.056714416 -0.2281547 -0.40368572 -0.38467857 -0.510784 -0.32942256
-0.16928358 -0.09907824 -0.24133486 -0.3371064 -0.0967909 -0.46304935 -0.24865703 -0.28945908
-0.24467756 -0.039788105 -0.046349145 -0.36576554 -0.36401787 -0.2114984 -0.22977415 -0.094328895
-0.30533215 -0.43164086 0.014599123 -0.3286285 -0.23669167 -0.2910777 -0.3516297 -0.44969612
-0.2994148 -0.098445155 -0.44519758 -0.4191572 -0.07042412 -0.34931532 -0.16067319 -0.25982967
-0.29958966 -0.047013104 -0.22704348 -0.44964433 -0.19866443 -0.09119684 0.13662724 -0.40709528
-0.21461383 -0.013270843 -0.39213285 -0.06344587 -0.11795916 0.073424466 -0.2696878 -0.40632007
-0.34850934 -0.24010342 -0.41137025 0.001538192 -0.5777158 -0.663601 -0.3281825 -0.2571866
-0.1815356 -0.19845703 -0.33310837 -0.7732519 0.0113557875 -0.41813242 -0.26034573 -0.005323926
-0.4140551 -0.19367857 -0.3045218 0.033225793 -0.050274115 -0.10134956 -0.25351518 -0.27201757
-0.39952713 -0.28069592 -0.116579354 -0.033257663 -0.15040869 -0.16538657 -0.34517688 -0.11658312
-0.44451553 -0.40870136 -0.20606251 -0.16561854 -0.29682115 -0.050727215 -0.37714157 -0.18589725
-0.5121819 -0.49980876 -0.45667115 -0.24948487 -0.2730801 -0.21172799 -0.33964556 -0.351274
-0.45300892 -0.18281387 -0.3151771 -0.30536854 -0.02755069 -0.1570654 -0.15549208 -0.066300474
00000000: 805c a3be c179 04bf 4318 0abf e447 80be
00000010: afe6 0dbe 6335 b9be 04ca ddbd 96bb d7be
00000020: 2cb9 8b3d e22f 4bbb a5b1 89be b590 78be
00000030: b453 60be d52e a5be e744 e0bd efbc 0bbd
00000040: 9e63 943b 4c70 a4be 4544 d1be cc0f d5bd
00000050: 7e7c 1ebe 93ef 0cbf 4033 86be b7d0 b0be
00000060: dd9b 26bf c33c d6be 874e 5ebe ee4f c1be
00000070: 6c89 84be f80a f6be 626b 2bbe 7086 b8be
00000080: 30fb 08be b736 c9be ed25 18be d43c 4bbd
00000090: 4ade 03bd 807e 2bbe 8de9 2bbe 5505 b8be
000000a0: 1bc7 29be a73b a0be c22a 97be ae04 84bd
000000b0: 7a06 80be 13ff 4bbe b5b5 b33c faae 7bbe
000000c0: 359b 59be f31f 70be 4a8e 0d3d 2da4 debd
000000d0: ac2d 8abe 6210 bfbc 773f fbbd 0c38 91be
000000e0: 6620 12bf 2449 d2be 5d11 35be 370d bcbe
000000f0: 9fb7 15be 71e4 c9bd b376 b2be edda 0fbe
00000100: 497f b1be 3ff5 c6be 461e debe b2a6 e3be
00000110: 3a77 f8be d705 afbe a3fa 9fbe 4095 02bf
00000120: ab38 2cbe 1d37 d1be 6b5c 0ebf 4adc 99be
00000130: 9b0f 853b ecde 17be a0b9 d9bd c50d dfbe
00000140: 012d f3be 1021 45bc 796b 00bf 6361 cebe
00000150: a618 95bd 89d1 a3be 8ad3 b8be b266 9fbe
00000160: 45b9 f9be 7398 7fbe 9f15 0abd 656c ddbd
00000170: d3f4 7cbe 5e15 40be 8de2 c83c b70f 8dbe
00000180: 4f67 b9be 38dd c8be 5368 49be 7130 06be
00000190: cbff 84be f179 5cbe 81bb 28be 4e8c b7be
000001a0: bc8c a3be 0e30 f7be 1816 86be 633e 01be
000001b0: 3b1f b3be 7af5 febd fc2d adbe 535d 43bf
000001c0: 760a 08bf 1fc3 b6be 2d1a 69be 3baa 39be
000001d0: 57cd a1be c201 12be e44e 0cbf 6e19 5f3d
000001e0: a53f 37bf 1db6 3d3e 6471 06bd 8749 9abe
000001f0: 0ebc 83be 46d2 92be 9ad2 a0be da71 d4be
00000200: 7a40 21bd 827a f3be 678a 88be 09fe 12be
00000210: bc79 38be 2048 73be 9178 b2be 1a1a f8be
00000220: 7c29 f8bc 506b a6be 7fc2 d5be b4ef 5bbe
00000230: 418a d3be 3664 ffbe 85eb 01bd e4ca 0ebf
00000240: 0f5b babe c13a cabe 604d 68bd 63a1 69be
00000250: e5af cebe 97f4 c4be bdc2 02bf 13aa a8be
00000260: ad58 2dbe 88e9 cabd 7c20 77be 3699 acbe
00000270: 4f3a c6bd ce14 edbe f39f 7ebe fb33 94be
00000280: c18c 7abe daf8 22bd 9ad8 3dbd 9f45 bbbe
00000290: 8d60 babe 0993 58be ea49 6bbe 822f c1bd
000002a0: 7f54 9cbe 0800 ddbe 2931 6f3c ff41 a8be
000002b0: 4d5f 72be 2308 95be cf08 b4be 923e e6be
000002c0: e64c 99be 9d9d c9bd f0f0 e3be c69b d6be
000002d0: 853a 90bd 75d9 b2be 8387 24be 6508 85be
000002e0: d163 99be d090 40bd 167e 68be c837 e6be
000002f0: b06e 4bbe 69c5 babd 03e8 0b3e cb6e d0be
00000300: bac3 5bbe f36d 59bc a3c5 c8be e9ef 81bd
00000310: 9294 f1bd 915f 963d 8514 8abe 2f09 d0be
00000320: d16f b2be acdd 75be 1f9f d2be 299d c93a
00000330: 2fe5 13bf c1e1 29bf 8907 a8be f6ad 83be
00000340: 78e4 39be 5238 4bbe 2e8d aabe d6f3 45bf
00000350: a00d 3a3c 7415 d6be 094c 85be 5474 aebb
00000360: 08ff d3be ad53 46be 48ea 9bbe c517 083d
00000370: 3bec 4dbd 5c90 cfbd becc 81be e345 8bbe
00000380: d28e ccbe 60b7 8fbe 28c1 eebd 3039 08bd
00000390: bc04 1abe 195b 29be 06bb b0be 21c3 eebd
000003a0: 8a97 e3be 4e41 d1be 0d02 53be e897 29be
000003b0: f1f8 97be 57c7 4fbd b318 c1be d95b 3ebe
000003c0: 5a1e 03bf efe6 ffbe cdd0 e9be f678 7fbe
000003d0: 28d1 8bbe 39cf 58be 06e6 adbe 30da b3be
000003e0: c9f0 e7be 8f33 3bbe e55e a1be 4459 9cbe
000003f0: fcb1 e1bc c1d5 20be 5139 1fbe 8bc8 87bd

bn.running_mean f4 [256]
7.584031 22.594286 -40.452312 31.01466 -22.66096 -9.76084 2.6481402 14.405037
21.427103 -25.510458 34.15144 5.385015 -2.9499202 20.986631 -0.9953729 13.262611
-28.967607 -7.232688 -8.581527 -29.821474 0.53570056 -16.537758 9.585108 40.801533
10.06761 26.260473 13.930019 9.726453 -8.671367 4.890309 -13.356025 6.917474
7.012849 -3.5836897 -30.593386 4.7923865 0.5939606 30.850899 -6.9540358 9.66658
18.328669 6.193168 19.493301 -5.653241 12.412642 -18.03126 1.4344336 14.393697
6.8678937 23.605515 20.611467 19.926336 -4.2952476 8.978939 -3.4525545 -6.6952295
7.075129 -12.9364395 1.6916654 23.144627 6.7238836 -16.032892 -5.096315 12.132138
-24.382555 -8.136108 -15.394504 15.015739 -15.802999 25.782448 11.308842 -0.5744798
-37.366417 -13.427364 -11.358935 4.64748 -11.519082 -15.035865 6.6794233 17.854868
-8.328159 1.0403625 22.602781 9.592977 12.007881 -14.584013 9.257196 -5.245919
-3.2761075 12.316035 -5.7027454 -17.315838 14.482477 -2.3571446 4.254595 21.51006
8.783493 6.4836245 -2.7345283 -8.577412 -1.281105 11.083632 3.4529 -15.114719
1.5677955 0.20819959 8.59652 25.13126 7.0289083 -8.10981 13.457915 -1.1639148
0.5763338 12.729056 21.494062 -5.628509 10.32616 8.498052 34.729355 29.30525
-6.88277 2.382477 -1.7133237 7.147115 -15.666002 -8.364598 9.7710085 5.7199316
1.9772487 4.142068 -29.260012 -3.8227851 -3.413745 -10.972681 -1.8661212 5.7152143
29.002739 -12.845914 6.976454 14.33265 6.562253 11.749823 -3.8845754 5.28442
30.30759 8.995064 -15.94462 -14.909066 -20.468437 2.1184773 37.897713 -6.6469646
6.271622 12.775705 21.949818 2.967947 7.6529794 12.593846 1.9275008 20.704334
3.768186 -14.751681 4.325005 8.857695 -3.3434167 6.4341 1.6061934 19.296618
17.049444 -34.177845 0.85177326 -10.516273 20.627314 -33.658012 -3.1846714 -4.383392
3.3673496 14.874542 31.800844 13.883777 17.837166 -21.694603 4.0697765 16.65749
28.829588 -32.17287 20.22478 -6.851971 -13.837363 6.5088434 9.778011 15.487914
-29.149548 8.841512 25.641132 8.502469 -0.9734104 7.6436443 -16.905006 20.25244
9.797085 6.1503353 13.418889 -9.773808 -15.481054 -15.183556 27.832712 25.674976
36.273247 -33.078987 -15.117668 4.951612 -1.364942 -16.625874 22.225782 4.7743754
6.9667563 6.8266234 24.810356 22.408152 -0.7623127 6.882775 4.226583 -19.160265
43.3262 -4.794688 12.143934 5.407233 -6.3305054 15.133346 2.5928795 10.815675
30.28654 -7.9645133 -5.422564 4.379986 -4.931149 2.1435857 -19.400496 11.319416
-8.08042 0.5685268 -20.14808 22.097603 7.3996296 9.187264 6.9383473 -19.434198
5.1258044 8.219569 -13.152164 36.605415 -1.8273183 -16.85783 21.424326 1.3897592
00000000: 62b0 f240 19c1 b441 2bcf 21c2 061e f841
00000010: a549 b5c1 672c 1cc1 217b 2940 087b 6641
00000020: b56a ab41 6b15 ccc1 139b 0842 0b52 ac40
00000030: 7ecb 3cc0 9fe4 a741 c2d0 7ebf a833 5441
00000040: a9bd e7c1 2e72 e7c0 ef4d 09c1 6192 eec1
00000050: ac23 093f 544d 84c1 9a5c 1941 c534 2342
00000060: ee14 2141 7315 d241 5ce1 5e41 8d9f 1b41
00000070: ebbd 0ac1 697d 9c40 47b2 55c1 f25b dd40
00000080: 4269 e040 2c5b 65c0 41bf f4c1 3b5b 9940
00000090: cd0d 183f a4ce f641 7687 dec0 50aa 1a41
000000a0: 1da1 9241 6f2e c640 48f2 9b41 5ae7 b4c0
000000b0: 2e9a 4641 0540 90c1 859b b73f 954c 6641
000000c0: c9c5 db40 18d8 bc41 49e4 a441 2369 9f41
000000d0: ab72 89c0 bca9 0f41 a7f6 5cc0 523f d6c0
000000e0: 7567 e240 a8fb 4ec1 7e88 d83f 3228 b941
000000f0: 0e2a d740 5d43 80c1 0315 a3c0 3d1d 4241
00000100: 790f c3c1 802d 02c1 e34f 76c1 7840 7041
00000110: 15d9 7cc1 7442 ce41 04f1 3441 1c11 13bf
00000120: 3677 15c2 7cd6 56c1 33be 35c1 28b8 9440
00000130: 294e 38c1 e792 70c1 d6bd d540 c5d6 8e41
00000140: 2440 05c1 992a 853f 7fd2 b441 d57c 1941
00000150: 4820 4041 1e58 69c1 7a1d 1441 92de a7c0
00000160: bfab 51c0 7b0e 4541 e47c b6c0 d686 8ac1
00000170: 3ab8 6741 75db 16c0 a425 8840 9a14 ac41
00000180: 3089 0c41 da79 cf40 8302 2fc0 143d 09c1
00000190: 40fb a3bf 8f56 3141 50fc 5c40 e4d5 71c1
000001a0: 86ad c83f 4632 553e 598b 0941 d20c c941
000001b0: d1ec e040 c8c1 01c1 9f53 5741 29fb 94bf
000001c0: 9d8a 133f 37aa 4b41 d7f3 ab41 bf1c b4c0
000001d0: f437 2541 05f8 0741 dcea 0a42 2771 ea41
000001e0: a73f dcc0 817a 1840 314e dbbf 2bb5 e440
000001f0: f2a7 7ac1 65d5 05c1 0d56 1c41 ae09 b740
00000200: 7c16 fd3f d28b 8440 8114 eac1 83a8 74c0
00000210: cc7a 5ac0 1a90 2fc1 0fdd eebf 09e3 b640
00000220: 9c05 e841 dd88 4dc1 1c3f df40 8952 6541
00000230: fafd d140 46ff 3b41 e29c 78c0 f819 a940
00000240: f275 f241 c8eb 0f41 2a1d 7fc1 898b 6ec1
00000250: 5cbf a3c1 2295 0740 4297 1742 efb3 d4c0
00000260: 21b1 c840 4a69 4c41 3a99 af41 d8f2 3d40
00000270: 35e5 f440 6580 4941 59b8 f63f 7aa2 a541
00000280: f629 7140 e306 6cc1 7166 8a40 1eb9 0d41
00000290: 8afa 55c0 26e4 cd40 bf97 cd3f 795f 9a41
000002a0: 4365 8841 1db6 08c2 d00d 5a3f a742 28c1
000002b0: bd04 a541 cea1 06c2 a8d1 4bc0 bf44 8cc0
000002c0: a882 5740 20fe 6d41 2168 fe41 f323 5e41
000002d0: 84b2 8e41 8c8e adc1 9c3b 8240 8a42 8541
000002e0: ffa2 e641 05b1 00c2 59cc a141 5943 dbc0
000002f0: d765 5dc1 7248 d040 bc72 1c41 7fce 7741
00000300: 4632 e9c1 d576 0d41 0a21 cd41 1d0a 0841
00000310: 6d31 79bf bc98 f440 743d 87c1 ff04 a241
00000320: dcc0 1c41 8ccf c440 c5b3 5641 8461 1cc1
00000330: 66b2 77c1 d8ef 72c1 65a9 de41 5a66 cd41
00000340: ce17 1142 e250 04c2 f8e1 71c1 9b73 9e40
00000350: 6bb6 aebf ca01 85c1 67ce b141 afc7 9840
00000360: abef de40 b373 da40 9c7b c641 e543 b341
00000370: ed26 43bf b13f dc40 2b40 8740 3948 99c1
00000380: 074e 2d42 166e 99c0 8e4d 4241 0e08 ad40
00000390: 8093 cac0 2f22 7241 bdf1 2540 010d 2d41
000003a0: d54a f241 4bdd fec0 a585 adc0 d828 8c40
000003b0: f9cb 9dc0 8230 0940 3734 9bc1 541c 3541
000003c0: 6649 01c1 f98a 113f 452f a1c1 e4c7 b041
000003d0: c4c9 ec40 09ff 1241 f106 de40 3d79 9bc1
000003e0: 9706 a440 5b83 0341 446f 52c1 f26b 1242
000003f0: 91e5 e9bf d6dc 86c1 0565 ab41 a1e3 b13f

bn.running_var f4 [256]
442.89035 674.89044 226.60994 780.6334 689.43665 511.06015 391.70566 730.03253
208.94504 286.04147 496.2031 774.02277 465.47534 618.57025 35.11593 294.1699
213.01675 508.0814 488.79794 230.99843 702.9826 313.82202 455.00797 271.8262
398.15518 335.43652 369.29147 366.40106 231.55089 308.5478 324.29532 357.52884
396.30676 813.97046 321.0914 231.19016 14.960133 462.43478 476.91675 302.1535
565.75555 465.50903 282.23608 534.72534 510.14764 218.92125 296.33173 516.4913
662.1673 676.0766 479.12894 189.3111 800.62384 456.49625 528.14325 441.60538
300.2609 797.7912 662.9541 396.44717 367.56903 137.30257 719.5047 210.69193
430.61374 181.29022 400.9116 178.89449 368.44528 364.14645 578.88086 198.16374
176.1701 583.1567 710.4655 494.99835 1186.9801 732.9077 427.16177 375.2954
304.0824 6.6856146 587.6382 383.5794 122.1467 405.08194 737.16187 506.0324
590.4714 466.89972 242.93808 511.19824 994.3311 422.61514 164.97041 846.5025
980.0797 559.2479 547.6597 424.19366 458.1654 1249.9872 341.57285 481.12146
563.4281 548.3084 608.1919 539.9455 348.6113 713.6034 605.954 86.79435
103.886215 579.64264 608.3892 295.96103 505.09277 483.307 256.75177 363.54706
338.47983 5588.9053 25.226038 40.685257 563.1024 636.47473 125.210556 557.60223
28.988838 108.73983 583.743 759.46704 1289.1727 218.63983 594.6463 752.14386
309.5287 313.22375 176.3713 500.5751 360.87973 355.92908 511.78992 348.2905
393.47128 366.60986 173.62697 386.79077 364.1023 611.45215 597.7296 195.27687
321.9218 590.9864 270.39728 516.9879 333.93134 166.85526 352.25998 311.65952
713.27185 326.3202 558.2917 131.66986 329.69925 965.1006 266.07397 290.42822
451.94022 297.63748 28.512276 921.33844 375.98843 448.3491 475.11053 731.7811
258.41354 537.82886 475.8942 786.23 127.69515 548.7735 411.80203 370.08075
420.81302 339.6342 558.1071 347.24918 948.35144 76.31028 93.4692 508.475
258.49768 416.58914 580.47876 2226.4424 104.58986 69.8836 389.54272 215.82535
503.7509 224.25746 493.0109 264.36826 359.8644 359.06747 215.44487 521.6465
401.49115 180.1737 534.48126 131.60806 34.448223 500.0149 570.3653 300.31592
307.32098 325.56332 314.15756 132.93571 44.99147 218.27536 399.02853 439.57172
363.4014 698.40717 481.50485 52.92464 961.2685 231.42883 653.0666 187.20352
399.373 585.29944 471.61826 956.8802 289.77423 12.26882 309.93195 266.50363
505.9889 95.581535 362.2728 332.75705 650.5198 227.78575 296.80722 554.6161
413.8916 409.60803 504.8184 474.10452 9.831519 219.78075 437.18036 1401.7971
00000000: f771 dd43 fdb8 2844 259c 6243 8a28 4344
00000010: f25b 2c44 b387 ff43 53da c343 1582 3644
00000020: eef1 5043 4f05 8f43 ff19 f843 7581 4144
00000030: d8bc e843 7fa4 1a44 b676 0c42 bf15 9343
00000040: 4a04 5543 6b0a fe43 2366 f443 99ff 6643
00000050: e3be 2f44 38e9 9c43 0581 e343 c1e9 8743
00000060: dd13 c743 e0b7 a743 4fa5 b843 5633 b743
00000070: 078d 6743 1e46 9a43 cd25 a243 b1c3 b243
00000080: 4427 c643 1c7e 4b44 b38b a043 ae30 6743
00000090: b45c 6f41 a737 e743 5875 ee43 a613 9743
000000a0: 5b70 0d44 28c1 e843 381e 8d43 6cae 0544
000000b0: e612 ff43 d7eb 5a43 762a 9443 711f 0144
000000c0: b58a 2544 e704 2944 8190 ef43 a44f 3d43
000000d0: ed27 4844 853f e443 2b09 0444 7dcd dc43
000000e0: 6521 9643 a372 4744 10bd 2544 3d39 c643
000000f0: d6c8 b743 754d 0943 4de0 3344 22b1 5243
00000100: 8f4e d743 4c4a 3543 af74 c843 fde4 3243
00000110: ff38 b843 bf12 b643 60b8 1044 eb29 4643
00000120: 8c2b 3043 07ca 1144 cb9d 3144 ca7f f743
00000130: 5d5f 9444 183a 3744 b594 d543 d0a5 bb43
00000140: 8c0a 9843 8ef0 d540 d8e8 1244 2aca bf43
00000150: 1c4b f442 7d8a ca43 5c4a 3844 2604 fd43
00000160: 2b9e 1344 2a73 e943 26f0 7243 6099 ff43
00000170: 3195 7844 bd4e d343 6df8 2443 29a0 5344
00000180: 1a05 7544 decf 0b44 39ea 0844 ca18 d443
00000190: 2c15 e543 973f 9c44 53c9 aa43 8c8f f043
000001a0: 66db 0c44 bd13 0944 480c 1844 83fc 0644
000001b0: 3f4e ae43 9e66 3244 0e7d 1744 b596 ad42
000001c0: bec5 cf42 21e9 1044 e918 1844 03fb 9343
000001d0: e08b fc43 4ca7 f143 3a60 8043 06c6 b543
000001e0: 6b3d a943 3ea7 ae45 edce c941 b4bd 2242
000001f0: 8ec6 0c44 621e 1f44 ce6b fa42 8b66 0b44
00000200: 24e9 e741 cb7a d942 8def 1144 e4dd 3d44
00000210: 8725 a144 cca3 5a43 5da9 1444 3509 3c44
00000220: acc3 9a43 a49c 9c43 0e5f 3043 9d49 fa43
00000230: 9b70 b443 ecf6 b143 1ce5 ff43 2f25 ae43
00000240: 53bc c443 104e b743 81a0 2d43 3865 c143
00000250: 180d b643 f0dc 1844 b26e 1544 e146 4343
00000260: fef5 a043 21bf 1344 da32 8743 3a3f 0144
00000270: 36f7 a643 f2da 2643 4721 b043 6bd4 9b43
00000280: 6651 3244 fc28 a343 ab92 0b44 7cab 0343
00000290: 81d9 a443 7046 7144 7809 8543 d036 9143
000002a0: 59f8 e143 99d1 9443 2419 e441 a955 6644
000002b0: 85fe bb43 af2c e043 268e ed43 fef1 3644
000002c0: ef34 8143 0c75 0644 75f2 ed43 b88e 4444
000002d0: eb63 ff42 8131 0944 a9e6 cd43 560a b943
000002e0: 1168 d243 2dd1 a943 db86 0b44 e59f ad43
000002f0: 7e16 6d44 dd9e 9842 3bf0 ba42 cd3c fe43
00000300: b43f 8143 694b d043 a41e 1144 1427 0b45
00000310: 022e d142 67c4 8b42 78c5 c243 4ad3 5743
00000320: 1de0 fb43 e941 6043 6581 f643 232f 8443
00000330: a5ee b343 a388 b343 e371 5743 6069 0244
00000340: debe c843 782c 3443 cd9e 0544 aa9b 0343
00000350: fbca 0942 e801 fa43 6197 0e44 7028 9643
00000360: 16a9 9943 1bc8 a243 2b14 9d43 8bef 0443
00000370: 44f7 3342 7e46 5a43 a783 c743 2ec9 db43
00000380: 61b3 b543 0f9a 2e44 9fc0 f043 d5b2 5342
00000390: 2f51 7044 c86d 6743 4344 2344 1a34 3b43
000003a0: beaf c743 2a53 1244 23cf eb43 5538 6f44
000003b0: 1ae3 9043 164d 4441 4af7 9a43 7740 8543
000003c0: 94fe fc43 bf29 bf42 eb22 b543 e760 a643
000003d0: 44a1 2244 27c9 6343 5367 9443 6ea7 0a44
000003e0: 20f2 ce43 d4cd cc43 c168 fc43 610d ed43
000003f0: e74d 1d41 dfc7 5b43 1697 da43 8239 af44
