checkpoint_actor_b.pth (torch_old, 183804 bytes, 6 tensors)

fc1.weight f4 [256, 48]
00000000: 455f 0d3f c00b 3d3f ee5d c23d d8a1 d73e
00000010: 9d5a 423e 2598 04bf 62b8 cc3d adf1 f23e
00000020: ecff 0a3f a521 5d3f d161 f43c 47ea aebc
00000030: 7ffa 953e c168 5abf 4cb5 bb3d e716 8e3d
00000040: 7475 013f de24 453f 19e4 793d 3c22 6dbe
00000050: b20c fa3e 00b4 8bbf b0e8 cb3d 9258 25be
00000060: 8ad9 423f fb8d 4cbf c6f9 47be 1b38 b83e
00000070: 58ba 44be ee22 12bf 2ace cdbd 7a0a bb3e
00000080: e863 643f 3d67 30bf 9cd1 603e a9ca c4bd
00000090: 4430 a0be 34f7 59bf 092e 3f3e abe7 48bd
000000a0: 9fe3 463f 3a57 19bf a064 8ebe 0369 42be
000000b0: 525b f5be 0f10 8bbf ac03 6dbe a35e 21be
000000c0: 6449 18bd ba74 05bf 2c50 533d a493 32be
000000d0: 2730 883e d839 dabe 0b2d ad3d 2c1c 1abe
000000e0: b75a 6fbd ad1b e7be 2b85 09bd 3b2d 0d3d
000000f0: c8d2 cebd 081c 3fbf c3cc 633d c83d 963d
00000100: b1e4 0ebe 76bc c4be a84a a0bb 9ec8 9d3e
00000110: 0580 a6be 3808 9bbf d0f6 9dbc a1d4 863e
00000120: 2c20 a3be b226 e13f b6a6 99bd e0aa 963e
00000130: 637b a0be 7bf9 dcbe 8295 a1bd 9ca5 7a3e
00000140: 033c a6be d0af e03f 0421 6d3c 6b32 c43e
00000150: 7f65 c43d dfcc 5abf 2f32 4bbc 6da1 a23e
00000160: 80c4 c2be 78ba de3f 8c79 733d 8a7b d7be
00000170: b143 633e badc 97bf ed17 3abc cd1e c3be
00000180: 40cc 493e a15e 223f 1e83 b7bd 4b17 d1be
00000190: eb3c 48bf b487 113f c471 f0bd 5d91 a1be
000001a0: e6fc d73e 3378 363f a4d1 ddbd e48d 0dbe
000001b0: b102 9abd 1a76 123e e95d 0ebe 7b96 61be
000001c0: 8531 c03e abb0 463f 4f13 eb3c d01f 873e
000001d0: 335d 413f 07ad 5c3d 9feb 543c cdb5 8e3e
000001e0: 523d ea3d 34ce 14bf 1285 313e a07d febd
000001f0: 7d21 3f3f 775c 113f 6a4f 773e 493b 17be
00000200: 4fad 973e 7718 d8be 3f67 fb3d ffb1 cabe
00000210: 13cf f23c a5b4 233e 1af5 3c3e 9814 fdbe
00000220: a8db 893e f3fc 02bf 804f 93be 409c 57be
00000230: c55f 45bf ffdd a23c 7e79 39be c51e 78be
00000240: de14 e2bc 10ba 97be 84f1 31bd cc13 54be
00000250: 556c 0d3f 3b81 48bf f410 8d3b 77a8 8bbe
00000260: 9023 c7bd c086 dabe 2cac 2abc c48d e9be
00000270: 1a20 113e e66c 6f3d 268f 06bd 16ef ddbe
00000280: 5239 873c 9c94 f1be 4323 2f3d af83 a5be
00000290: 41a2 93be 6312 823f 3f44 52bd a3c5 9abe
000002a0: 654b ae3e 9d1b 8dbf eaa6 193e 677c 403e
000002b0: 0a9c 26bf c62f 52bf 57cb 353e b9b7 3d3e
000002c0: c802 9c3e 7de5 8abf b8c2 5b3d 6e66 5e3e
000002d0: 81d5 e3bd ea24 643c 2436 b43d e88b 1b3e
000002e0: 2b76 c43e ac01 7fbf 1192 883d fa93 23be
000002f0: affc b13e 5c43 903f b02a 8ebc d282 30be
00000300: 8ec3 d23e 3c9a 50be 7806 9ebe 59c9 7abe
00000310: 0a82 ccbe ba1e 88be 79b6 77be 92bb 8abe
00000320: e1cb fd3e 8269 18be dc20 f43d 7480 393d
00000330: 3c50 18be a7f3 69be d009 553d 3da4 af3d
00000340: 20b9 b63e 48f9 32bd 0855 29be b93d f83e
00000350: a915 edbc aefa 8fbd e1cb fbbd 8a59 d63e
00000360: f492 3d3f 4224 a63e 93b0 8c3c 5421 bc3e
00000370: 445a a83e 985b 6abe bf08 9d3d f3b8 f93e
00000380: f5b7 1e3f df73 c33e bbc8 8cbe e51b f33e
00000390: 807d 113e 21fa 9abe de2b 62be 3a59 d33e
000003a0: 2472 023f e03d de3e 8e21 1ebe e6cd b33d
000003b0: 4d1c b23d 0739 c4bd afc1 bcbd acd8 0b3d
000003c0: b285 343e 8db3 003f ac67 9abd 960d 96be
000003d0: 5037 88be 29bb 0bbf 637c 6ebd ffcd 96be
000003e0: 1b90 863e d785 dc3e 8632 cabb d59e 51be
000003f0: f198 aabe 5338 5bbf 05d4 d9bc aecf 55be
0.55223495 0.73846054 0.09490572 0.42115664 0.18979879 -0.51794654 0.09996106 0.4745001
0.54296756 0.8637946 0.029831799 -0.021351947 0.29292676 -0.8531609 0.09165439 0.06937962
0.50569844 0.7700938 0.061008547 -0.2315759 0.4883781 -1.0914307 0.09956491 -0.16147068
0.7611319 -0.79904145 -0.19528875 0.35980305 -0.1921171 -0.5708455 -0.10049088 0.3653143
0.89214945 -0.6890753 0.2195496 -0.09608967 -0.31286824 -0.8514283 0.18669905 -0.04904906
0.7769107 -0.5989872 -0.27811146 -0.18985371 -0.47921234 -1.0864276 -0.23145932 -0.15758757
-0.037179366 -0.52131236 0.05159013 -0.17439133 0.26599237 -0.42622256 0.08455857 -0.15049809
-0.05843612 -0.45138302 -0.033574264 0.034466963 -0.10098797 -0.7465215 0.055615198 0.073360026
-0.13954426 -0.38425034 -0.004891712 0.3081712 -0.32519546 -1.2111883 -0.019282728 0.26334098
-0.31860483 1.7589934 -0.07502501 0.29427242 -0.31344137 -0.43159088 -0.078898445 0.24477237
-0.3246766 1.7553654 0.014473204 0.38319716 0.09589671 -0.8546886 -0.012402101 0.31763783
-0.38040543 1.7400656 0.059442088 -0.4208644 0.22193791 -1.1864235 -0.011358243 -0.38109437
0.19706821 0.6342564 -0.089605555 -0.40838084 -0.78217953 0.5684769 -0.11740449 -0.31556216
0.42185134 0.7127716 -0.108310014 -0.13823658 -0.075200446 0.14302865 -0.13903011 -0.2203006
0.3753778 0.77613324 0.02869573 0.2639146 0.75532836 0.05387595 0.01299563 0.27873078
0.11437477 -0.5812714 0.17335919 -0.12426305 0.74660474 0.56781715 0.24151388 -0.14768709
0.2962441 -0.42206165 0.12275552 -0.39588925 0.029639756 0.15986879 0.18452874 -0.49429774
0.26925397 -0.5116722 -0.2877159 -0.21055698 -0.7709926 0.019881247 -0.18112752 -0.24230488
-0.02759784 -0.29634142 -0.043443218 -0.20710677 0.55243427 -0.7832219 0.0043049995 -0.27276966
-0.0972358 -0.4268093 -0.010417026 -0.4561597 0.14172402 0.058453463 -0.03285136 -0.4334647
0.016506825 -0.47183692 0.042758238 -0.3232703 -0.28834727 1.0161861 -0.051334616 -0.3022891
0.34041896 -1.1024052 0.15005079 0.18797456 -0.65081847 -0.82104146 0.17753349 0.18527116
0.30470872 -1.0851284 0.053652495 0.21718761 -0.11124707 0.013924817 0.08799389 0.15190089
0.38371405 -0.99611926 0.06668485 -0.15974417 0.34763095 1.1270556 -0.01735434 -0.17237404
0.4116482 -0.20371336 -0.3086431 -0.2449087 -0.39942962 -0.26585943 -0.24190702 -0.2709623
0.4956961 -0.14883998 0.1192033 0.045288518 -0.14874357 -0.22846852 0.05201131 0.08576248
0.35688114 -0.043694764 -0.16536343 0.4848459 -0.028940992 -0.07030235 -0.12294746 0.41865188
0.7405236 0.32449538 0.01717404 0.36744177 0.32881367 -0.22886503 0.07667684 0.48773918
0.61999446 0.3817434 -0.27496895 0.4748222 0.1420803 -0.30268958 -0.22087047 0.41279012
0.50955415 0.43406582 -0.15442488 0.087795064 0.08696804 -0.095811896 -0.0921663 0.03414218
0.17629126 0.5027397 -0.07539305 -0.2930724 -0.266047 -0.5458246 -0.058224093 -0.29454038
0.2628182 0.43070862 -0.0061705736 -0.20470746 -0.3331981 -0.8563282 -0.026590357 -0.20880005

fc1.bias f4 [256]
00000000: 2e30 52bd e5cc 103f 2f69 fcbe 3b99 a1be
00000010: 4194 13bf 1aff 1ebd 409d b1be aa67 7c3e
00000020: 34b9 643d 8b19 c1be 8fe8 adbe 9c5c 1a3c
00000030: f797 5fbe 4831 683e e25e 4dbf 4ad5 e8be
00000040: 6869 fbbe 23a5 24be d456 3bbf c597 353e
00000050: a18c babe 6834 23bf 342e c3be 6af7 b6be
00000060: 4fe9 1abe d9fb 66be 88ee dabe aee9 63bf
00000070: 1cfd 37bf a62a a9be 55af 3f3e 44b5 91bd
00000080: acbe 013d c8c2 5fbd 5d85 cdbe 8a46 13bf
00000090: 2748 82be e6ee 0b3e 15ef 0abf 3981 dbbe
000000a0: b688 53bd ac2e 1bbf eeaa dd3e 01c8 173d
000000b0: 48ef 42bf 5c5f 9c3e 8fb8 40bf f4cc c5be
000000c0: bdf6 b8bd 4ac4 143e 5961 eabd 54de 8ebe
000000d0: 526e 4abe 49d1 5cbf dfa6 c1be 330d a4be
000000e0: d4fe 13bf 078c 92be 4430 7ebe 4dd7 d3be
000000f0: a458 583e 7ac3 623f 3ec7 dabe f031 1fbd
00000100: 77a9 863d 0f5d 04bc 72ab 913c 34e6 3dbf
00000110: 3558 37bf 473f 75be df48 f2bd 19e3 33be
00000120: 2e79 9bbe cc10 14bd f587 e0be 8479 93be
00000130: e381 24bf ec85 c8be 6a40 533d 9ddb 08bf
00000140: b31d 72be 1757 343e b17b dabe defc bebe
00000150: b7b1 39bd d1f7 9a3e 575a dabd 88c5 bfbe
00000160: d0a4 f437 b5c0 593d dcba afbe b466 3e3f
00000170: 2ed3 993e 489a 213f 828f cabe 3417 2bbf
00000180: 988f cbbe 0890 723f 4477 3ebd b35a 763e
00000190: b185 00bf 4ec0 dfbd 507f d4be a67d 273e
000001a0: 722e c9be 07b1 98be 062b 25be a0c8 813d
000001b0: 6e07 12be a4af d4be 5311 48bf 1fe8 2fbf
000001c0: 60ef 4dbe b73c d53e 4260 c3be 78b0 b6bc
000001d0: 4b57 06bf 3257 91be 8e71 2ebf ade4 31bf
000001e0: a79f a8be 3b32 7abe 6998 2cbf 46b1 d1be
000001f0: 2f95 f53e e6d6 37bf 769f 42bf 7876 07be
00000200: b972 a13d 593d ebbe 3def 85bd 88df 943e
00000210: 77ab 0abf f2ab 7ebf 4975 a8be 3c94 df3e
00000220: 9ead ee3e 7511 3abf 89dd 41bf 24d4 18bf
00000230: 28e4 bdbe c635 0ebf 4578 adbe 708d f63e
00000240: f29a fb3e c77d 77be 1e7d 8dbe 77eb 6d3e
00000250: eaf3 dabd 6727 40bf 8887 abbe 568a d13e
00000260: d420 72be 861e ea3d 052e a4be dd04 83be
00000270: d417 acbe 8dc5 033e 05f8 74be b829 7fbe
00000280: ab9f 11be 5725 09bf f0d2 87bd 9d1e ccbe
00000290: f2fb b63e cddd a7be 1492 0b3f 31b3 583f
000002a0: 3451 233e b70b 18be ed43 dc3c 6193 14bc
000002b0: 382d 533e 49bb 0fbf f246 3d3e 2908 17bf
000002c0: 4ff4 893e b246 823c d3d9 0dbf aa20 e1be
000002d0: 303e 24bf 1cf4 91be ac0c acbe 6a84 06bf
000002e0: a392 bdbe ea8c 0dbf c238 e53d b20e cfbe
000002f0: 24bf 0cbe 8932 8bbe aa1f 153e e501 01bf
00000300: 2ace 313e 9ba5 1f3e fe86 80be fbf0 8bbe
00000310: d5bc 2a3f 0e80 23bf a58d a93b acde 21be
00000320: 1f26 29bf 472a 8dbe 9582 9bbe dd26 2abe
00000330: c7e1 b4be 6abe d83c 9fb7 87be fcb9 eabe
00000340: debf 26bf f69a 7a3e bc84 503e a09a d6be
00000350: 91b7 3cbf 4e51 ec3c f66b 073f 4f15 b0be
00000360: f427 24bf f75f c8be 3e4e 673e ab17 7bbf
00000370: 87b0 863e 7d87 e0be da4b 9c3e 6cb8 8ebe
00000380: 716e 49be 3b90 a23a 544b 63be 6bcc 5cbe
00000390: 93d8 d2be eb06 b3be d1f2 7f3e 0b7b bcbe
000003a0: 4b86 e6be 12a3 74bd 47b2 cabe 872c 143f
000003b0: 629f 183f 7964 cf3e 4d54 9dbd ac9b afbe
000003c0: e37a f83c e4c0 ad3d 53ed 6d3f 3cdc e7be
000003d0: 6225 4e3d 8c51 143e 0c73 b7be e7ff 11bf
000003e0: e0df 6a3e eaaf e0bd 4d5b 6cbf f6be aabe
000003f0: 19c2 9bbe 4de5 0abc 8eea edbe 82fd 25bf
-0.05131548 0.56562644 -0.49299 -0.31562218 -0.5764809 -0.038817503 -0.34690285 0.2464892
0.055840686 -0.377148 -0.3396649 0.009421494 -0.21835314 0.2267505 -0.80222905 -0.45475227
-0.49103856 -0.1607862 -0.73179364 0.17733677 -0.36435416 -0.6375184 -0.38121188 -0.35735637
-0.15128063 -0.2255701 -0.4276011 -0.8902844 -0.7187059 -0.3304035 0.18719228 -0.07114652
0.03167598 -0.054629117 -0.4014081 -0.5752951 -0.25445673 0.13665351 -0.5427106 -0.42872027
-0.05164405 -0.6061809 0.43294472 0.037055973 -0.76146364 0.30541503 -0.75281614 -0.3863293
-0.090314366 0.14528003 -0.11444349 -0.27903998 -0.19768646 -0.86256844 -0.37822625 -0.3204132
-0.5781071 -0.28622457 -0.248231 -0.413752 0.21127564 0.88579524 -0.42730135 -0.038865983
0.065752916 -0.0080788275 0.017781947 -0.7417939 -0.7161897 -0.2394992 -0.11830305 -0.175671
-0.3036589 -0.03614883 -0.43853727 -0.28803647 -0.6426069 -0.39164674 0.051575102 -0.53460103
-0.23644142 0.17611347 -0.42672494 -0.37302297 -0.045335498 0.30267194 -0.10661762 -0.37455392
2.9163813e-05 0.053162295 -0.3432225 0.7437546 0.3004393 0.6312604 -0.39562613 -0.6683228
-0.3975799 0.94751024 -0.04650046 0.24058037 -0.50203997 -0.10925351 -0.41503382 0.16356525
-0.39293247 -0.2982256 -0.16129693 0.06337094 -0.14260647 -0.41540253 -0.78151435 -0.68713564
-0.20110846 0.41647884 -0.38159376 -0.022300944 -0.5247695 -0.28386837 -0.6814202 -0.69489557
-0.32934305 -0.24433224 -0.6742006 -0.4095556 0.4796538 -0.71812284 -0.7602457 -0.13228786
0.0788321 -0.45945242 -0.06539772 0.2907679 -0.54167885 -0.9948112 -0.3290198 0.4366778
0.46616834 -0.7268289 -0.7572866 -0.596987 -0.37088132 -0.555508 -0.3388082 0.48154783
0.4914165 -0.24169074 -0.2763452 0.23234354 -0.10691054 -0.75060123 -0.3350184 0.40925854
-0.23645335 0.11431603 -0.3206636 -0.25589648 -0.3361193 0.12868328 -0.23922737 -0.24918258
-0.14221065 -0.535726 -0.0663203 -0.39867106 0.35739094 -0.32786408 0.5451977 0.84648424
0.15948945 -0.14848219 0.026887858 -0.009068341 0.20622718 -0.5614515 0.18484095 -0.58996826
0.26944205 0.01590285 -0.554105 -0.43970233 -0.6415739 -0.28506553 -0.33603418 -0.525458
-0.37025937 -0.5529314 0.11192466 -0.404409 -0.1374479 -0.27186993 0.1456286 -0.50393516
0.17363802 0.15590517 -0.2510299 -0.2733229 0.66694385 -0.6386727 0.005174356 -0.15807599
-0.66073793 -0.27571318 -0.30373064 -0.16616388 -0.35328504 0.026457984 -0.2650728 -0.4584502
-0.65136516 0.24473175 0.20363134 -0.41914845 -0.737176 0.028847363 0.5289911 -0.34391257
-0.64123464 -0.39135715 0.22588441 -0.9808299 0.26306555 -0.4385337 0.3052662 -0.27875078
-0.19671036 0.0012402603 -0.22196704 -0.21562354 -0.41180858 -0.34966215 0.24994971 -0.36812624
-0.45024332 -0.05972583 -0.3958914 0.57880443 0.596182 0.40506342 -0.07682095 -0.34298456
0.030332034 0.084840566 0.92940253 -0.45285213 0.05032862 0.14484233 -0.3582996 -0.570311
0.22936964 -0.10971053 -0.92326814 -0.33348817 -0.30421522 -0.008477521 -0.46468014 -0.6483995

fc2.weight f4 [128, 256]
00000000: 07d9 9d3e 6df8 0abf 1983 503f 88c2 15bf
00000010: 7189 1fbe f5d2 da3c 4fe4 82bd 1ffc 87bd
00000020: 2afa 42bd 7101 943e 5a71 ba3b 6ae6 47bd
00000030: aa42 46bd 9cb7 52bd 8948 17be c30c 2b3e
00000040: 592a 9cbd e529 4bbe 0044 1b3d 2164 49be
00000050: e6e0 2bbe 9528 98be a180 663d 05ac cc3c
00000060: 4e89 0b3e 1371 003e a160 27bf d966 8ebe
00000070: df53 8b3d 6a59 11be 7b15 b03d ed4f 753d
00000080: 7930 b63d a394 fd3e 0186 6c3e 189a 82be
00000090: 6d33 073f ec83 e9be 07b7 893e 0f54 6b3e
000000a0: 6ba3 4cbd ddf2 6dbe 9d2b e7bc d903 8dbf
000000b0: c9af a53e ee03 cdbe 43bd 483d f5a3 c03e
000000c0: 7546 2cbf 1f46 5f3e 6d7b 9b3d 1d03 7abe
000000d0: 55be d13e 7da0 f7bc 957f 5fbf f18e 09bf
000000e0: a74f 2e3e 1dd2 6b3f 2855 50be 0952 e53d
000000f0: 570b 8d3e 71f6 05bf 077f cc3e 0733 b5bd
00000100: a73e febd 4c9c 2d3e 5e07 75be 5e36 73bd
00000110: cd3e 54bd 8e3a 1dbe e42d 383e d6ab bc3e
00000120: 822e 783f 715e 65bd 7113 0e3f c084 cd3d
00000130: e8ab 8ebe c29f 4c3e 3e13 23bd 57ad 65bf
00000140: 824c 20bd 5990 ddbd 96b6 e63d 5146 64bd
00000150: 226a d5bd 6e99 aabe 6f28 203e 31b4 1bbe
00000160: 7db7 933d 00a5 5ebe cdc5 a2bc 2db2 12bf
00000170: 422a 28bf da8b cbbd b1ec 963e c6aa 8d3d
00000180: 28b5 87be 2a72 67bc 16b0 0abd bc52 fb3e
00000190: 97d3 183e 2e73 c9be b8de 0c3e a15d 133e
000001a0: 3a9d 043e 24a7 dc3d 5468 363e 4ab8 b8be
000001b0: ccff 76bc 7ea4 f2be 04b8 ebbb eb18 643e
000001c0: b665 c5be 09c1 f0be 9199 17be eaf4 b0be
000001d0: f9a3 b3be 6474 183e 718f a33d 674e 153e
000001e0: 6717 7d3e 5636 103c 6d17 1dbf 7e28 b1bd
000001f0: bcc1 ca3d 864e 93bd ca4c 92be 6a0f 20be
00000200: c43a c7be d66b 983e 2e31 8b3e 0aaa b0be
00000210: 4009 c2bd 642b 96bd 6bc8 a23e 9ba2 9ebe
00000220: 8ddd b2be 1dda 203e c0b3 db3e c978 a53e
00000230: a576 f43e b717 e23e ed3a f63e 25ac 2cbf
00000240: c3af 80be e190 01bf 4c11 2f3e 9f54 90bd
00000250: 3bdd eb3d c0e3 363d e21a efbe e7be 8ebe
00000260: 4597 05be 928d e33d e363 813d 33ae d33d
00000270: 08ae e5bd 2ef6 c9be a444 ec3d 8141 04bd
00000280: d8c6 013e e8b0 533e d304 07bf e134 ffbe
00000290: 394d 46bd 849f 753e 75ba a6bc 1ffa d4be
000002a0: 1f17 523d 89b4 f7bc e85c f9be 1973 d4be
000002b0: 3247 03bd 070d 25be 6f6b 71be 8c9c 863e
000002c0: bb3d c73a 4459 cd3d c0b6 953e f7a0 2abf
000002d0: 945f 883d f5c1 cfbe 8eff 133f caca aa3e
000002e0: 054a 44be 52b5 be3a 9449 1a3e 4055 283e
000002f0: 5bd9 61be 6132 fabd 7583 e33d 5630 673d
00000300: a171 dd3d 1905 a2bd b938 1abd 9b74 b23e
00000310: 2e8d 9abe 8bb2 b43c 2642 a3be 1e7c 68be
00000320: de4f 643e f0b3 a0bc b4c6 f53d 0f8f dfbe
00000330: 2325 6b3e b480 65bf 770a a8bc 3c92 323f
00000340: e9d9 453e 5aad 6cbf 25fd 91bd 730d d63e
00000350: a577 933e abdc 203e a3ae 00bf 1009 e23c
00000360: 118d 1cbe 9fea 5abf 5823 473e ea03 fbbc
00000370: 35ba 3f3e 3312 f93d a049 c8be 1472 febe
00000380: 95b9 143e 8ad7 5bbe eec8 bdbd e0e8 523d
00000390: 5728 cebe ce53 733b ad8c a1be a3e2 71be
000003a0: aad8 8dbe 04c1 c6be 19fb 18bf 50b4 41be
000003b0: 8ab0 f4be 8376 c13d 1151 13be 35ba 063c
000003c0: 5d6d 0c3f 18dc 75be be2b 13bf 19b9 5f3e
000003d0: d637 26bf cd2e 8a3e ac35 6cbc 9b65 ba3e
000003e0: a32e 68bb c9b4 59bf 843c 033e 0aa3 25be
000003f0: fd6f 7abd 4f8a 22be dbe2 adbc 2bcc 06bf
0.3082964 -0.5428532 0.8145004 -0.58499956 -0.15579773 0.02671192 -0.06391203 -0.06639885
-0.047601856 0.2890735 0.005689782 -0.048803724 -0.04840342 -0.051444635 -0.14773764 0.16704087
-0.07625265 -0.198402 0.037906647 -0.19667102 -0.1678501 -0.29718462 0.056275014 0.024984369
0.13626596 0.12543134 -0.6538182 -0.27812842 0.068031065 -0.14194265 0.08597847 0.059890676
0.08895964 0.49527463 0.23097993 -0.2550819 0.52812845 -0.4560846 0.2689745 0.22981285
-0.049960535 -0.23237176 -0.028219039 -1.1016799 0.32360676 -0.4004206 0.04900862 0.3762509
-0.6729501 0.21804093 0.07591901 -0.2441525 0.40965524 -0.030227894 -0.8730405 -0.53733736
0.17022572 0.9211748 -0.20344985 0.111972876 0.27547714 -0.52329165 0.39940664 -0.08847623
-0.12414294 0.16954154 -0.23928592 -0.05937802 -0.051817704 -0.15354368 0.17986256 0.3684985
0.96945965 -0.05599827 0.55498415 0.10035086 -0.2786553 0.19982818 -0.039813273 -0.8971762
-0.039135464 -0.10818548 0.11265294 -0.05573112 -0.10420634 -0.33320183 0.15640424 -0.15205456
0.07212732 -0.2174263 -0.01986971 -0.57303125 -0.6568948 -0.09938784 0.29477456 0.06917338
-0.265054 -0.01412634 -0.033859335 0.4908656 0.14924465 -0.39345688 0.13756835 0.14391185
0.12950602 0.10774067 0.17813236 -0.360781 -0.015075635 -0.47391123 -0.007193567 0.2227513
-0.38554162 -0.47022274 -0.14804675 -0.34561855 -0.3508604 0.1488815 0.07986344 0.1458069
0.24715959 0.008802017 -0.6136387 -0.086503014 0.09900233 -0.071927115 -0.2857421 -0.1563088
-0.38912022 0.29769772 0.2718596 -0.3450473 -0.094744205 -0.07332495 0.31793532 -0.30983433
-0.34934655 0.15708204 0.42910576 0.32318714 0.4774677 0.44158718 0.48091832 -0.6745017
-0.25134096 -0.5061169 0.17096442 -0.0704739 0.11516806 0.044650793 -0.46700197 -0.27880022
-0.13045986 0.11110987 0.0631788 0.1033596 -0.112148345 -0.39445633 0.1153653 -0.032289032
0.12673509 0.20672953 -0.52741736 -0.4984503 -0.04841349 0.23986632 -0.020352582 -0.41597077
0.05129158 -0.030237453 -0.48703694 -0.41494063 -0.03205032 -0.16118251 -0.23576139 0.2629131
0.0015200892 0.10026792 0.2924099 -0.6665186 0.06658855 -0.40577665 0.5781182 0.3335784
-0.19168861 0.0014549887 0.1506713 0.1643877 -0.22055571 -0.1221664 0.11109058 0.05644258
0.108126886 -0.079111286 -0.03765175 0.34854588 -0.30185837 0.022057792 -0.31886405 -0.22703597
0.22296092 -0.01961705 0.1200079 -0.43663833 0.22963385 -0.8964951 -0.020512803 0.69754386
0.19321407 -0.92452013 -0.071283616 0.41807136 0.2880222 0.15709178 -0.50266474 0.027592212
-0.15288188 -0.85514253 0.19447076 -0.030641515 0.18723376 0.12161674 -0.3911867 -0.4969641
0.14523919 -0.2146894 -0.0926684 0.05149162 -0.40265152 0.003712881 -0.3155264 -0.23621611
-0.27704364 -0.38819134 -0.59758145 -0.1891644 -0.4779094 0.094464324 -0.14386393 0.008223106
0.54854375 -0.2400974 -0.5748862 0.21847953 -0.6492895 0.2698883 -0.014417093 0.36405644
-0.0035428188 -0.8504148 0.12816054 -0.16175476 -0.061141957 -0.15873073 -0.021226337 -0.52655286

fc2.bias f4 [128]
00000000: bf04 92be 35f4 1ebe f1db 1bbe 20cb dbbd
00000010: 4481 cb3e 59e9 6dbe 52ae adbd 3c2d 5bbe
00000020: e630 2fbe 3bc9 2abc b41c 5bbe bdd0 c7bb
00000030: a553 cfbe 9d5c 3bbe 055c 16be f6c1 efbe
00000040: 3440 3fbe 51d3 05be 11da 64be 3266 48be
00000050: 06c9 633d f47b 023c a01d 8fbe 5d26 1abc
00000060: 982d 01be 81d6 8bbc 4b75 97bd b3e9 c3be
00000070: 2b64 11be 2340 21bf 3d87 bcbe 5f69 d33d
00000080: 0867 7abe 0811 94be 1469 b8be 3f1d c4bd
00000090: 0001 dabe 42a9 bc3c bcd7 9fbd 4dbe 1e3e
000000a0: 9ac7 2cbe 306c 9bbc 937b 4dbe 9a6c bbbd
000000b0: 494d a8bc 4154 33be 4fd1 a1be 9feb 6dbe
000000c0: 8602 713d ffa1 20be 2d19 d4bd 64d1 47bc
000000d0: 484a bcbe 47f8 9ebe fb82 65be 06d0 ffbd
000000e0: 1c07 2bbf eeff 413e 8ea3 923e d326 0abd
000000f0: 82b2 a2bc 28c5 6fbe 27a1 fbbc 6885 fdbd
00000100: f542 babe ce20 73be 42fc ddbe 3129 22be
00000110: 3967 e4bd 3ad0 54bc 5ed9 65be 4c8b fcbd
00000120: d55d 703d 0891 90bd b4f8 a2be f529 02bd
00000130: 7501 43be dd09 e1be 5ec0 c6bd cf45 e43c
00000140: fb47 75be 70a8 b5be 8aee 03be d7a7 17bf
00000150: 50d6 15be d111 54be 12fa 16be 82e3 9bbd
00000160: f767 ebbe 8a0d 4cbe 1ce5 a0be 318e 9fbe
00000170: e40d 34bd 855a 62be 6a69 b7bd 7313 59bd
00000180: 170f cfbe b61c 16be 7123 8a3b 2ab0 0b3e
00000190: 05e1 a5bd 4c68 8cbd 3dec a6bd c7bb 303e
000001a0: 6683 05be 9722 3fbf b09a 8cbe 612f 393e
000001b0: 2fb0 51bf 237e a23d 8d83 01bf 0741 93bd
000001c0: 27d9 dbbd f11f babd 5989 29be b76d c5bc
000001d0: 7d5d d3bd 0bc9 acbe abc8 bc3e 5764 cebe
000001e0: 4956 55be cc88 68be 571a c7bc 9931 b3be
000001f0: 5046 a3be c5d6 4a3d 5b73 82be 8e38 10be
-0.28519246 -0.15522845 -0.1522062 -0.107321024 0.3974706 -0.23233546 -0.084805146 -0.21403974
-0.17108497 -0.010423954 -0.21397668 -0.0060978816 -0.40493503 -0.18297048 -0.1468354 -0.46827668
-0.18676835 -0.13068892 -0.2234881 -0.19570234 0.055611633 0.007964123 -0.2795229 -0.009408561
-0.12615049 -0.017070057 -0.07395419 -0.38264236 -0.14198367 -0.6298849 -0.3682193 0.10322832
-0.24453366 -0.28919244 -0.36017668 -0.09575891 -0.42578888 0.023029927 -0.0780482 0.15502281
-0.16873017 -0.018972486 -0.20066671 -0.091515735 -0.020544665 -0.17512609 -0.31605002 -0.23234414
0.058840297 -0.15686797 -0.103563644 -0.012195919 -0.36775422 -0.31048796 -0.22413246 -0.12490849
-0.66807723 0.18945286 0.28640407 -0.033728432 -0.01986051 -0.23415053 -0.030716492 -0.12378961
-0.3637921 -0.23742983 -0.4335652 -0.15836026 -0.11152501 -0.012989098 -0.224462 -0.12331256
0.058683235 -0.070589125 -0.3183037 -0.031778295 -0.19043525 -0.43952838 -0.0970466 0.027865319
-0.2395324 -0.3548007 -0.12883964 -0.5924048 -0.14632535 -0.20709921 -0.14743832 -0.07611753
-0.45977756 -0.1992704 -0.31424797 -0.3116317 -0.04395856 -0.22104843 -0.08955653 -0.052997064
-0.404412 -0.1465939 0.0042156507 0.1364142 -0.0809956 -0.068558306 -0.081505276 0.17259131
-0.13038406 -0.74662155 -0.27461767 0.1808448 -0.8190946 0.07934215 -0.50591356 -0.07190137
-0.10734778 -0.090881236 -0.165563 -0.024100168 -0.10320566 -0.33747134 0.36871848 -0.40310928
-0.20833696 -0.22708434 -0.024304552 -0.34998778 -0.31889582 0.049521226 -0.25478634 -0.14084074

fc3.weight f4 [2, 128]
00000000: c66a bcbd fd27 edbc de38 0c3e 97a4 163d
00000010: 2cf7 923d cf62 3dbd a556 563d df72 c63d
00000020: 6666 bbbe dc2d d139 877b cbbd 8032 f9bc
00000030: 88f2 e7bc 73cd d7bc 48f9 67be 5d17 b9bd
00000040: 553b 3e3e 414e 263d a69b 0d3e d4e3 8fbe
00000050: 4872 45be 74bf 043d ea3c 1b3c b5d3 743e
00000060: faba c53c 7cd4 c2bb db1e 90bd 59c7 60be
00000070: 72f2 3d3e 8373 91bb 6192 49bc ec7b 6fbe
00000080: e5be b9bb 9bad 44bd f4a3 f6bc 44c5 333e
00000090: 900b f7bd 0d8e efbc 5fde a0bd c04f bf3e
000000a0: 3c8c 84bd 341d 703b 747d 46bb ea0a e03d
000000b0: 7a84 1e3d 4d68 d0bc e95a 29be ff32 8e3e
000000c0: 080a 4ebd 8ab1 4ebd 4a66 25bd 74da 2dbd
000000d0: 3583 9d3e 3eef 6e3d 9d35 b73c 4ca4 94ba
000000e0: 8c0a d0bd 1c73 a7bc 2748 383d 7a67 8bbc
000000f0: 4f03 31bb 482f fd3d 58d1 383e 0e35 453c
00000100: 19b5 1cbe 8a18 87bd 9f84 093c ddd1 103d
00000110: 8546 b6bc 4365 6f3d cc0f 253d 0e1d 39bd
00000120: a1dd 0abe 0366 62be ddad cd3c 1406 0f3e
00000130: cb75 e33d 3d9b 3fbd 532b edbc 19f3 81bc
00000140: cae3 e93d afc3 8b3c 3d51 6dbe b472 a4bd
00000150: e9c0 c1bd 5a20 353d e83a 593c 04a1 f1bc
00000160: 5384 9d3d 1f8b d53d e75a 23be c168 e13d
00000170: 5ceb c4bc 4a1d 463e 0997 19bd 9826 a5bc
00000180: 5f66 0dbe 6d42 aa3c 18be f43c 784e f9bd
00000190: 400b cdba 0a20 e1bc 74fb 253b b2e4 96bb
000001a0: ff6d 3fba 35ae 873d 4ba0 ad3a 192b 0b3e
000001b0: 0cc8 2a3e f99d b33c cabe 223b 7b64 87bc
000001c0: 1f69 2abc 5797 9cbb fcb9 a43c a9eb 24bc
000001d0: d13f f43d 82c7 d8bd 1982 273d c602 5bbc
000001e0: 513e d13d 7349 253d 11b3 0b3e 0f7f 6ebd
000001f0: 6f2e 133e 9755 16bd f5d6 25be 3de7 b63c
00000200: 8340 8b3e 24a0 e63e f2f1 cabe 77d6 153d
00000210: d922 babc 7f19 81be da7b b53e f259 92be
00000220: bd7f 26bf 7f44 b2bc fd43 c4be 570c 0abd
00000230: 6aad 9a3e f130 5b3e 5b4b 2c3d e96e 6abe
00000240: ba1f 8d3d b07b 043e 43af 63be da75 b3bd
00000250: 8b36 dfbd 15d8 6bbe e1c5 b03e c04f d1bd
00000260: 7605 85be 5665 1cbe a800 d33e b732 4d3e
00000270: c56b ab3c f3fa 013e 0f7b dd3e ace9 08bd
00000280: af74 233e 6652 fa3c 6c08 9c3e 6fa4 91bd
00000290: 9bd8 4f3b 9b64 b33c fe6f 453e d581 bf3d
000002a0: a5e8 36be a755 feb9 7924 ae3d dec2 dbbd
000002b0: b03d cf3c f573 c3be 0237 66be 9f97 1cbe
000002c0: b914 1bbe e91e fb3b 2fb5 f43d 9875 9cbe
000002d0: 26f0 bdbe cdbd 263e 6b1d 203e e3d0 0e3d
000002e0: 4ffb 3abe e5cf 90be e38c d33b 88f3 ffbc
000002f0: b63b 5d3d 76f2 c5bd 7dfb b23c b28d 833e
00000300: 3ae2 edbb f22a e4be 8fa3 4fbe e77b b93e
00000310: f2cf 65bd 04d8 5abc 5caa 813e 51c3 e8bd
00000320: 6b7a 21be 86f8 503e 2485 2abd 100f ed3d
00000330: ef6c 513d 0e84 c3be 8dbd 3ebe f958 f1bb
00000340: 3836 43be e250 18bf fe64 a8be c68e e43d
00000350: f1a4 54be 3082 9abe 2b12 433e ec30 2a3b
00000360: 4649 22bd 4bbb a6be 6cb8 b83e 2dab 2e3e
00000370: a2f0 563e ad27 72be c75b db3e f65f aebb
00000380: ca7e 30be 7aa3 b33e cde5 e9bd 2c2a 0ebf
00000390: 27f1 993b 7d63 1fbf 2908 873c 4cf7 42be
000003a0: 7243 803c dace 123e f095 863e ba21 9939
000003b0: 4b5a 50be d2bd 2abe 6103 a23e 3d2e 59bc
000003c0: a70e dcbc 7cbc 143a f165 403e 3ccf 33bc
000003d0: 7da1 303d c826 ec3d 8369 abbd f257 d23e
000003e0: ee33 9e3e 9b1e c13d 7985 4ebe 4ea0 923d
000003f0: 9b9d ccbd 0a3c 8dbe ae9c 9abd 3797 403f
-0.09200053 -0.028949732 0.13693568 0.03677806 0.071760505 -0.04623681 0.052328724 0.09689879
-0.3660156 0.00039897754 -0.0993567 -0.030419588 -0.02831389 -0.026343083 -0.22653687 -0.09037659
0.18577321 0.040601972 0.13828906 -0.28103507 -0.19281876 0.032409146 0.009474972 0.23908885
0.024137009 -0.0059457403 -0.07037135 -0.21951045 0.18549517 -0.004438819 -0.012302966 -0.23387116
-0.0056685084 -0.048017126 -0.030107476 0.1755572 -0.12062752 -0.02924254 -0.07854914 0.37365532
-0.0647206 0.00366385 -0.0030287178 0.10939582 0.03870056 -0.02544036 -0.16538586 0.27773282
-0.050302535 -0.050462283 -0.040380754 -0.04244466 0.30764166 0.058333628 0.022364432 -0.0011340468
-0.10158262 -0.02044063 0.044990685 -0.017017115 -0.0027010029 0.12362534 0.18048608 0.012036575
-0.15303458 -0.06596477 0.008393436 0.03535639 -0.022250423 0.05844618 0.04029827 -0.045193724
-0.13561107 -0.22109227 0.025107319 0.13967162 0.111064516 -0.046778906 -0.028951323 -0.015862988
0.114204004 0.017061083 -0.23175521 -0.080296904 -0.09460623 0.044220306 0.013258673 -0.029495724
0.076912545 0.10426926 -0.15952645 0.11006308 -0.02403801 0.1934711 -0.037497554 -0.020160004
-0.13808583 0.020783627 0.0298758 -0.1217317 -0.0015643612 -0.027481098 0.002532688 -0.0046048993
-0.00073024625 0.06625024 0.0013246624 0.13590659 0.16677874 0.021925913 0.0024832957 -0.016527405
-0.010401039 -0.0047787833 0.020108216 -0.010065951 0.119262345 -0.10584928 0.040895555 -0.01336736
0.10216964 0.04035325 0.13642527 -0.05822664 0.14373182 -0.03670272 -0.16195281 0.02232706
0.27197656 0.45044053 -0.39637715 0.036581483 -0.022721695 -0.25214764 0.35446054 -0.28584248
-0.65038663 -0.021761177 -0.3833312 -0.033703174 0.3021043 0.21405388 0.042064052 -0.22893871
0.06890817 0.12937808 -0.22234826 -0.08762713 -0.10899075 -0.23031648 0.3452597 -0.10220289
-0.2598073 -0.15273032 0.41211438 0.20038877 0.020925412 0.12693386 0.4325795 -0.033425972
0.1596248 0.030556869 0.30475175 -0.07111441 0.00317148 0.021898558 0.19281003 0.09350935
-0.17862184 -0.0004851047 0.0850305 -0.10730527 0.02529797 -0.38174406 -0.22481921 -0.15292214
-0.15144624 0.007663597 0.119486205 -0.30558467 -0.3709728 0.16283341 0.15636222 0.03486718
-0.18259929 -0.2828361 0.006456004 -0.031244054 0.054012023 -0.096653864 0.021848435 0.25694042
-0.0072596343 -0.44564015 -0.20277236 0.36227342 -0.056106515 -0.013357166 0.25325286 -0.11365379
-0.15769355 0.20407304 -0.04163088 0.115751386 0.051129278 -0.38186687 -0.18626995 -0.0073653427
-0.19063652 -0.5949842 -0.3288955 0.11160044 -0.20766045 -0.3017745 0.190499 0.00259691
-0.03962066 -0.32564768 0.36078203 0.17057486 0.20990232 -0.23647948 0.42843458 -0.005321498
-0.17235866 0.3508566 -0.11420784 -0.555331 0.004697937 -0.6226118 0.016483383 -0.19039649
0.01565716 0.1433672 0.26286268 0.00029207562 -0.20346944 -0.16673973 0.31643203 -0.013255653
-0.026862456 0.00056738383 0.18788888 -0.0109747015 0.043122757 0.115308344 -0.08369734 0.41082722
0.30898994 0.09429666 -0.20168103 0.07159482 -0.09990998 -0.2758487 -0.075494155 0.75230736

fc3.bias f4 [2]
00000000: 93c6 423e 23cc 913e
0.19021063 0.28476056
