checkpoint_actor_a.pth (torch_old, 183780 bytes, 6 tensors)

fc1.weight f4 [256, 48]
000000 a9 c1 8a 3e 2f e0 32 3f 8c 29 f0 3c 55 88 6d 3b
       0.27100876 0.69873327 0.029316686 0.003624459
000010 59 01 37 bd 99 95 73 be b7 c9 0c 3d fa 58 69 3d
       -0.04467902 -0.23787536 0.034372058 0.05696962
000020 d8 df 98 3e a9 5a 51 3f 68 88 2f be a0 8b 8d bd
       0.2985828 0.8177896 -0.17141879 -0.06911397
000030 36 66 a3 3e 3d bb bb be f4 73 e0 bd 38 13 b1 3c
       0.31913918 -0.3666629 -0.10959616 0.02161561
000040 cc 7d 61 3e e3 35 01 3f e6 f9 0f 3e 99 b2 ae bd
       0.22020644 0.5047285 0.14060172 -0.085301585
000050 42 b9 51 3f ba 4c 0b be 3e 75 37 3e 9f 06 79 bc
       0.81923306 -0.13603488 0.17915818 -0.0151993325
000060 3e 03 c5 bd 6e 9d 26 3f f5 a4 9b 3c ab 87 3a 3c
       -0.09619759 0.6508397 0.018999556 0.011384885
000070 9f 82 2d 3d 39 e0 94 be aa 0e e9 3d 81 6a 8a 3c
       0.042360898 -0.29077318 0.1137975 0.016896488
000080 7b 7f ab bd a9 db 29 3f 9d b3 b4 be 03 e8 53 3c
       -0.08373924 0.663508 -0.35293284 0.012933734
000090 09 9c ad be 34 d8 ba be 62 85 c5 be 54 a6 75 3d
       -0.33908108 -0.36493075 -0.38578326 0.059973076
0000a0 6d da 38 be 1f 55 0a 3f 77 1c 8a 3d f5 c9 de 3e
       -0.18052073 0.54036134 0.067437105 0.43513456
0000b0 68 60 4f bf 33 2d 06 be b0 a6 e9 3d 1d 4f ef 3e
       -0.8100648 -0.1310318 0.11408746 0.46740046
0000c0 25 51 cf 3d 9f 1f 98 3e a5 9f 93 3d e9 f4 49 be
       0.10122899 0.29711625 0.07208184 -0.19722332
0000d0 5d 35 ab be 0f d5 01 3e a8 23 d7 3d 8a 7d 31 be
       -0.3343915 0.12678932 0.10504848 -0.17333046
0000e0 fe 55 0e 3e f2 a9 91 3e eb 53 04 be 06 85 aa 3d
       0.13899991 0.2844997 -0.12922637 0.083261535
0000f0 56 5e 7e bd 2f 43 b5 3e 2e fd 23 bd d7 2c fa 3d
       -0.062101685 0.3540282 -0.040036373 0.12215584
000100 e5 b2 38 3d ab 52 b2 3e 72 b1 8d be 4c 5e 95 3e
       0.045092482 0.34828696 -0.27674443 0.29173505
000110 ce e2 59 3e c6 2b d3 3e cf 0f 95 be a8 d4 7c 3e
       0.21277925 0.41244334 -0.29113623 0.24690497
000120 96 1d aa bd 4b ef 01 3f ea 5a 1d 3d 04 6e 5a 3d
       -0.08306424 0.5075576 0.03841678 0.053327575
000130 25 ea 92 3e 5e ab f8 3d 90 7c 0d 3d f6 cb 7a 3b
       0.28694263 0.12142061 0.03454262 0.0038268543
000140 6e b5 20 be ef f4 5a 3e 9c 2a e1 be 6f 3e 7e be
       -0.1569421 0.21382497 -0.4397782 -0.24828504
000150 3d 83 69 3d 01 c3 7b 3e 5f ed ee be b4 b0 a0 be
       0.057009924 0.24586107 -0.46665475 -0.31384814
000160 cc 50 9c be b3 1e 88 3e 4c 28 3b be ab 12 bc 3e
       -0.30530393 0.26585922 -0.18277091 0.36732993
000170 f9 ce a1 be 7a d9 df 3e d3 d3 81 be 7f 6f d0 3e
       -0.3160322 0.4372061 -0.25356922 0.40710065
000180 2b 1d e8 3c 05 9e 44 3e ae 09 7f be 15 28 0d bd
       0.02833422 0.19200905 -0.24906036 -0.034462053
000190 05 83 c0 3e d3 e6 0e bd 5c c0 8d be 43 05 6f 3d
       0.3759996 -0.0348881 -0.2768582 0.058354627
0001a0 e9 02 99 bd 7f e9 ac 3d 2c ca 78 be 34 35 de bd
       -0.07471258 0.08442973 -0.24295872 -0.108499914
0001b0 00 a1 b3 3e 08 5f 3b 3e be 1f 8c be 88 23 43 be
       0.3508377 0.1829797 -0.27367967 -0.19056523
0001c0 57 fd e8 bd 64 2c 6c 3e 42 43 f6 be 35 cf 6c bc
       -0.11376446 0.23063809 -0.4809819 -0.014453699
0001d0 85 3e 18 3e dc dd 66 3e 0d 4d fe be c2 5a be 39
       0.148676 0.2254557 -0.4966816 0.00036307244
0001e0 75 90 57 3f ea 09 8e 3e c2 98 c3 be 87 3b c9 be
       0.842048 0.2774194 -0.38202482 -0.39303228
0001f0 01 ba d2 be 93 9a 11 bd 4b b3 a0 be a6 39 d5 be
       -0.41157535 -0.035547804 -0.3138679 -0.41645545
000200 b7 bd 06 3f e2 8b 58 3e c1 35 b1 be 02 10 52 be
       0.5263323 0.21147111 -0.34611323 -0.20513919
000210 04 f5 ca be 61 9d 4c 3e ed 94 91 be 96 6a 9b be
       -0.39640057 0.1998191 -0.28433934 -0.30354756
000220 7e 03 fa 3e 4b e8 69 3e 96 22 05 be 38 f2 e7 be
       0.4883079 0.22842519 -0.13001475 -0.45301986
000230 bb 48 28 be 5c 0e 44 3e 68 ec bf bc 3a 33 f8 be
       -0.16433994 0.19146103 -0.023428157 -0.48476583
000240 5e cb 7e be cd 0e 2d be 72 3f 35 be 47 b2 0c bf
       -0.24882266 -0.16900177 -0.17699984 -0.5495953
000250 1f 27 3b 3d ef bb 7d bf 77 5a 04 be 7a 81 1d bf
       0.045691606 -0.9911489 -0.12925135 -0.6152569
000260 5c 16 b0 be 8b 4a e9 be 6e ac 95 bc a8 ab b3 bf
       -0.3439206 -0.45564684 -0.018270697 -1.403676
000270 15 77 0c 3e 03 86 80 bf 0a ba 26 bd 05 c4 b0 bf
       0.13717301 -1.0040897 -0.040704764 -1.380982
000280 27 c5 91 be cf 7a 2d bf 38 a1 16 3e b9 81 16 bf
       -0.28470728 -0.67765516 0.14709938 -0.5879169
000290 b9 df 48 3e dd 23 52 bf 94 1a 59 3d d4 22 11 bf
       0.19616593 -0.82085973 0.053003863 -0.5669377
0002a0 68 3f 74 be 6f 02 b4 bf 75 b6 e8 bd 5d af 41 3d
       -0.23852313 -1.4063243 -0.11362926 0.04728638
0002b0 c0 88 13 be 16 b5 83 bf 95 6e b0 bd c3 9c 36 3d
       -0.14407635 -1.0289638 -0.08614842 0.044583093
0002c0 17 5a 90 be 1f b1 ab bf 84 a8 91 bd cc 35 1a 3e
       -0.28193733 -1.3413428 -0.0711222 0.15059584
0002d0 50 84 da bd 22 39 86 bf bd a7 16 bd 71 b6 ae 3d
       -0.10669768 -1.0486186 -0.03678106 0.08530892
0002e0 b8 bf 90 be 26 95 b5 bf 73 33 5e 3e 19 a3 eb be
       -0.2827127 -1.4186141 0.21699314 -0.4602287
0002f0 05 2b 0c be 7c c2 35 bf c5 24 08 3e 86 1a f2 be
       -0.13688286 -0.70999885 0.13295276 -0.4728586
000300 db f6 79 3f 2a b6 8d bf 5e 85 38 3e 0e ab 0e 3e
       0.97642297 -1.1071217 0.18019626 0.1393244
000310 d0 6f 02 3e 16 0f de bc e6 db 7c 3e 88 fa e7 3d
       0.12737966 -0.027106803 0.2469326 0.11327082
000320 47 ff 34 3f 84 f6 81 bf 87 d8 82 3d f6 4f a7 3d
       0.7070202 -1.0153356 0.063889556 0.08169548
000330 10 98 46 bd cc 41 90 3d ff 3f 58 bb 73 33 fa 3d
       -0.04848486 0.070438 -0.003299713 0.122168444
000340 c8 27 38 3f 10 98 25 bf 4d b5 18 3e 6c 7d bc 3e
       0.719357 -0.64685154 0.14912911 0.3681444
000350 3f 0a 95 be 8b e1 0e be 10 24 44 3e a5 98 9a 3e
       -0.2910938 -0.13953225 0.19154382 0.30194584
000360 62 70 08 3f 98 8b c1 be 9a 9b ea 3d ce e6 0c 3e
       0.5329648 -0.37801814 0.1145546 0.1375992
000370 3c bf 4a be 8a f1 21 3c 98 3b 32 3e 00 0b 84 3e
       -0.19799513 0.009884248 0.17405546 0.25789642
000380 21 57 0a 3f c0 8f 08 bf 66 e1 ea 3d 0e c0 e3 bd
       0.540392 -0.53344345 0.114687726 -0.11120616
000390 a0 4c 2b 3d 7f 0b 78 bb 3c d6 2c 3e 20 66 31 be
       0.041821122 -0.003784865 0.16878599 -0.17324114
0003a0 3a 37 f7 3e b0 73 e7 be fe 61 c3 bb f7 da d3 bd
       0.48284322 -0.4520545 -0.0059626093 -0.103444986
0003b0 da bf b2 3e f8 00 29 be c5 93 66 3d ae de 20 be
       0.34911996 -0.16504276 0.056293268 -0.15709946
0003c0 04 b8 8b 3e e0 b5 8a bf f9 6f ca 3d 11 2b 9a 3e
       0.2728883 -1.0836754 0.09884638 0.30110982
0003d0 e2 69 68 3e 15 4c 01 3f 7a 99 ed 3d ab 6a 99 3e
       0.22696641 0.50506717 0.11601539 0.29964194
0003e0 77 8b c1 3e 50 eb 7d bf 60 d3 5e 3c b9 4b d1 3e
       0.37801716 -0.99187183 0.0136002 0.40878084
0003f0 4a 11 74 be a8 94 13 3f 4b 78 df bb 62 33 cf 3e
       -0.2383472 0.57648706 -0.00681976 0.4046889

fc1.bias f4 [256]
000000 7e 09 82 be 61 09 c8 bd 66 54 36 3e f1 45 de 3e
       -0.25397867 -0.09767414 0.17805633 0.43412736
000010 40 e5 3e be 95 cb b4 be 78 aa 36 3e 7e c8 56 bd
       -0.1864214 -0.3531157 0.17838466 -0.052437298
000020 e5 1e 4d bf 78 e1 3e be 74 99 b0 be 75 bd 36 bf
       -0.80125266 -0.18640697 -0.34492075 -0.7138284
000030 e5 66 1e bf 21 77 3f bf cd 00 2e 3e 78 b7 be be
       -0.61875755 -0.7479115 0.16992493 -0.3724935
000040 84 31 a8 be 17 6e 62 be e7 0e 9b be 1b 29 42 be
       -0.32850277 -0.22112308 -0.30284807 -0.18960993
000050 bb fb b9 be a8 13 1d bf e2 81 cb be 92 bf 76 bf
       -0.36324868 -0.6135812 -0.3974753 -0.96386063
000060 b4 55 1b 3f 74 bd bc be d4 d7 d9 3d af 92 c6 be
       0.6067765 -0.3686329 0.10636869 -0.38783786
000070 49 3f 90 3f 4d f0 26 bf 25 4f 05 3e 94 60 01 be
       1.1269313 -0.6521042 0.13018472 -0.12634498
000080 6d 15 7f 3d 9f cd 05 3f 7e f8 15 bf 28 eb 5e bf
       0.062276293 0.5226688 -0.58582294 -0.8707757
000090 8d 97 15 bf 77 a5 29 be de fd 59 bf 66 3e 9e be
       -0.58434373 -0.16567026 -0.85152996 -0.3090698
0000a0 2a 72 a9 bd 43 e9 4b be 30 0c c0 be 96 1c ff be
       -0.08273728 -0.19913201 -0.37509298 -0.49826497
0000b0 55 54 c6 be 29 c3 4f 3e ff 7e ac be a7 8e 8d 3e
       -0.38736215 0.20289291 -0.3369064 0.27647898
0000c0 80 9a 32 3f 53 86 f3 be 3a 76 b6 be 1f 00 e0 be
       0.69767 -0.4756342 -0.35637075 -0.43750092
0000d0 9f b2 5d bf 37 fe c9 be 50 bc 2b 3f 5f 0d c9 3e
       -0.8660068 -0.39451763 0.6708422 0.39268014
0000e0 c0 27 84 3e 75 a0 3e 3f 0b 04 03 bf 3c 41 ac bd
       0.25811577 0.7446359 -0.51178044 -0.0841088
0000f0 76 38 9c 3e 65 ea ae be 80 3f 1c bf 7e 62 00 bf
       0.30511826 -0.34163204 -0.61034393 -0.5015029
000100 a4 de 7c 3e 1f 02 41 be 47 5a 3f bf 0d c5 20 bf
       0.24694306 -0.18848465 -0.7474713 -0.62800676
000110 83 52 3c bf 4d df 8f be 41 33 ea be 9c 8a 4d be
       -0.735634 -0.28100052 -0.4574223 -0.20072407
000120 bd 1e 39 bf 85 bc 8b be b3 c2 01 3e 9e 0c a5 be
       -0.7231253 -0.27292266 0.12671928 -0.3223619
000130 7c 30 02 be 14 10 fe be e8 b0 12 3e 66 61 32 bf
       -0.12713808 -0.49621642 0.14325297 -0.6967987
000140 99 a8 33 be 64 fa d1 bd a2 14 bb be 44 0b a0 3e
       -0.17544784 -0.10252836 -0.3653918 0.31258595
000150 2a e4 13 be 32 13 23 bf 71 0f 10 bf 2d f5 f6 3d
       -0.14442506 -0.63701165 -0.5627356 0.12058482
000160 7d e7 fb be cb a1 89 3e 88 c5 8a 3e cc 11 66 be
       -0.4920005 0.2688125 0.2710383 -0.22467726
000170 40 90 2a be 05 d8 cd be 5a b6 21 be 4c 13 18 bf
       -0.1665659 -0.40203872 -0.15792218 -0.59404445
000180 25 86 99 be 20 c5 1f 3f 2c a5 b5 be 8e 1b 26 bf
       -0.29985157 0.62410164 -0.3547758 -0.64885795
000190 e0 ec 2a bf 44 3f c0 bd 1c fc 35 bf 50 d9 02 bf
       -0.6676769 -0.09387067 -0.71087813 -0.5111284
0001a0 b0 e8 fc bd ce 6f ec be 37 a6 8a bd 28 6f 8d be
       -0.12349069 -0.4617905 -0.06769984 -0.27623868
0001b0 48 ad 0b bd 6c 56 9a bd 1a f5 47 bf 9d b0 48 3f
       -0.0341008 -0.07536015 -0.7810837 0.7839449
0001c0 34 69 49 bf 81 5f 06 be ee 22 a2 be 42 05 00 bf
       -0.7867615 -0.1312237 -0.31667274 -0.5000802
0001d0 33 19 00 bf e9 85 7e 3e 9b a5 3f b9 a0 b7 03 bf
       -0.5003845 0.2485577 -0.00018276872 -0.51452065
0001e0 c7 35 de be 89 94 01 bf d8 fe 97 be 06 6e a7 bc
       -0.43400404 -0.5061727 -0.29686618 -0.020438205
0001f0 40 02 da be 2d b3 e9 be 9d cb 1d bf 97 bb 84 be
       -0.42579842 -0.45644513 -0.61638814 -0.2592437
000200 7a d1 0f bd c5 9d 15 bf 46 b3 d3 be 17 a2 47 bf
       -0.03511188 -0.5844386 -0.41347712 -0.77981704
000210 2a 70 37 bf c9 4b d1 be d7 1b f5 be c1 63 08 bf
       -0.71655524 -0.40878132 -0.47872803 -0.5327721
000220 17 fb b9 3e a5 b3 ce be 62 67 ef be 4e af 2d bf
       0.3632438 -0.40371433 -0.46758562 -0.6784562
000230 91 c0 2b bf c4 53 44 bf 74 a6 3a bf bd e7 ef 3e
       -0.6709071 -0.76690316 -0.7291024 0.4685649
000240 af 9f b3 be 0f d7 f1 be 79 6b 4c bf ca 4a 8f be
       -0.35082766 -0.4723439 -0.7985149 -0.27986747
000250 df 73 0f bf cf 32 65 bc 68 d2 89 3d 14 d8 c9 be
       -0.5603618 -0.0139891645 0.06729585 -0.39422667
000260 e2 61 2d bf 9a ad bf 3e 70 d8 a9 be ea c0 86 be
       -0.6772748 0.37437135 -0.3317294 -0.26319057
000270 57 c8 a9 bd 8d 57 a1 3c 43 e0 12 3d ce db fd bd
       -0.08290165 0.019695068 0.035858404 -0.1239544
000280 34 de a0 be c4 cc db be 95 21 e9 be d6 08 d8 be
       -0.31419528 -0.4292966 -0.45533434 -0.4219424
000290 77 27 d0 be 70 69 00 bf f6 6c 22 bf 7d 6b 65 3f
       -0.4065511 -0.50160885 -0.6344751 0.8961714
0002a0 e2 8e 29 bf 2e 81 09 bf 40 a4 56 be 76 72 0b bf
       -0.66233647 -0.5371274 -0.20961094 -0.5447153
0002b0 f5 1f 5c be 27 f5 f5 be 50 a9 32 bf 41 24 39 bf
       -0.21496566 -0.480386 -0.697896 -0.72320944
0002c0 9a 83 14 bf f0 4e 11 3f 9f 3c 00 3d 35 0a b4 be
       -0.5801331 0.56761074 0.031307813 -0.35164037
0002d0 a9 16 d7 be d6 93 80 3e ee 7b 0c bf eb a6 f6 3d
       -0.42009476 0.2511279 -0.548766 0.12043556
0002e0 88 78 8c be 77 ae 61 be f8 76 fa be d2 18 34 be
       -0.27435708 -0.2203921 -0.4891889 -0.17587593
0002f0 d4 6b 17 bf 6b b4 08 bf 77 fe 74 3e 2f 71 27 be
       -0.5914891 -0.53400296 0.23925196 -0.1635177
000300 5e c6 5f 3e 4a 4e 04 bf 68 d6 21 bf ef 22 1a bf
       0.21853015 -0.5168196 -0.6321778 -0.60209554
000310 4c c1 df be c5 f0 0e bf fb 91 15 3e e2 07 11 be
       -0.4370216 -0.55836135 0.14606468 -0.14163163
000320 a7 29 3f bd 1f c0 c7 be 8a eb 13 3e 74 3a 56 bf
       -0.046670582 -0.39013764 0.1444532 -0.8368294
000330 8b a4 ea be 0e 45 24 bf e7 30 1f bf 59 13 24 bf
       -0.4582866 -0.6416787 -0.62183994 -0.6409202
000340 42 5f e7 be 8b 3e f7 3e 49 bb 32 bf 05 f0 3a bf
       -0.45189863 0.48289904 -0.69817024 -0.7302249
000350 ea 24 2f bf 53 ed a7 be fc 40 0e 3f 63 97 e1 3e
       -0.684157 -0.32798252 0.5556791 0.4406081
000360 9c 03 08 bf 55 68 1d bf c7 b2 2f bf 13 7d b1 be
       -0.5313051 -0.61487323 -0.6863217 -0.34665737
000370 58 c6 13 be 1b 5b 80 bd 1c c7 20 bf 8f 65 fd be
       -0.14431131 -0.06267377 -0.62803817 -0.49491546
000380 47 86 c4 3e cc d5 99 be cd c6 99 be 28 65 ec be
       0.38383695 -0.30045927 -0.30034485 -0.46170926
000390 e7 b5 d7 be 0b 77 84 be d9 a1 be be ab 56 4e bd
       -0.42130968 -0.25872073 -0.37232855 -0.05037562
0003a0 76 d6 94 be 0e 93 15 bf f2 27 99 be 98 34 07 bf
       -0.2906987 -0.5842751 -0.29913288 -0.52814627
0003b0 ec 64 17 3c 1e 48 77 3e c1 f3 15 be fb fa f1 be
       0.00924037 0.24148604 -0.14643766 -0.47261795
0003c0 9c 58 41 3f 47 ca 30 bf 42 fe 40 bf 7d 8f 55 bf
       0.7552583 -0.6905865 -0.75387967 -0.8342207
0003d0 f9 fd 82 bd fa 13 db be cf 6f 2b be 07 6f f3 be
       -0.06396098 -0.42788678 -0.1674187 -0.47545645
0003e0 08 b9 32 be f7 8b 15 3e f6 b6 dc be e3 6c 0b 3e
       -0.17453396 0.14604174 -0.43108338 0.13615756
0003f0 76 2b 20 bf 05 3c 14 bf a8 85 9e be 7f 1b 06 be
       -0.62566316 -0.5790408 -0.30961347 -0.13096426

fc2.weight f4 [128, 256]
000000 19 7a 2d be 0c 32 0e 3d 8f 0b d8 bb 6b 08 07 bd
       -0.16941108 0.034715697 -0.0065931748 -0.032967012
000010 06 0a 46 bc f8 b6 29 bd ba 77 79 3d c6 32 dd bd
       -0.012087351 -0.04143426 0.060905196 -0.108007
000020 91 1c e7 bc 2d 86 9b bd 89 60 05 bc 53 e9 0c bd
       -0.028211864 -0.075939514 -0.008140692 -0.034402203
000030 f5 90 8d bd 95 66 08 bd 06 04 3c 3d 35 79 1a 3c
       -0.06912414 -0.033300955 0.045902275 0.009428312
000040 4c 70 86 be 15 05 b7 bd 5c 99 a0 bd be e2 47 3d
       -0.2625755 -0.08936516 -0.07841751 0.048800223
000050 a0 86 5e be 5f 7e 53 3d 43 42 26 be 1d b6 6d 3d
       -0.21731043 0.05163419 -0.16236214 0.058035005
000060 3d 4c 48 be 9f 0b 10 bd fc 46 c0 bc 9f 61 77 bd
       -0.19560333 -0.035167333 -0.023471348 -0.060395833
000070 90 f6 7a bd e8 5a 39 be b5 19 c7 bd 9c fe 7a bd
       -0.061270297 -0.18101084 -0.097217 -0.06127797
000080 4b fa d4 3c 67 a7 bb bc 53 63 07 be 0f d4 b5 bb
       0.025998255 -0.022906972 -0.13221483 -0.005548961
000090 4d 7f 99 bd 9d ee b6 bc 2c a4 aa bd 2e 3b d1 bd
       -0.07494984 -0.022330577 -0.083320946 -0.10216366
0000a0 6c 1c 8e be 66 cf 82 3c 3a a8 73 be 53 c2 2d be
       -0.2775606 0.015968036 -0.23794642 -0.1696866
0000b0 f4 7a f7 bc 1c 66 0b be a1 02 ef bd 58 bd 8b 3a
       -0.030209996 -0.1361317 -0.11670423 0.0010661287
0000c0 ad 42 03 bd 3a 32 44 bd d6 54 9e bb 0e 3b 28 be
       -0.03204601 -0.047899462 -0.0048318906 -0.16428778
0000d0 0b 5f c1 3c 3d 8b 37 bd 89 2a 0b be 77 b6 85 bd
       0.02360489 -0.044810522 -0.13590445 -0.06528943
0000e0 8d ba 21 be 3e b1 10 bd a8 08 c5 bc 4e e3 a8 3c
       -0.1579382 -0.03532528 -0.02405198 0.0206162
0000f0 34 d8 9f bc a3 82 ef bd eb ba ec bb 0b 7d e2 bd
       -0.019512273 -0.11694839 -0.007224431 -0.11059006
000100 cb c2 8b 3d 9f 3a 11 3d 69 cc 96 bd a4 f2 41 be
       0.06824263 0.035456296 -0.07363207 -0.18940216
000110 4b 68 0a be 5b d6 00 be cb 9c a7 bd b7 c4 19 be
       -0.13516347 -0.1258177 -0.08184203 -0.15016447
000120 32 ed c0 3b a9 22 12 3d 06 a4 fb 3c 7e 41 9e 3d
       0.005887651 0.035677586 0.03071786 0.077273354
000130 a8 65 25 be 76 3b c0 bc fc 45 53 bd c6 ef 39 bd
       -0.1615206 -0.023465853 -0.051580414 -0.04539468
000140 ef ce a5 bd 31 24 6a bd 54 70 c1 3b 09 6a a0 bd
       -0.0809611 -0.05716342 0.005903283 -0.078327246
000150 03 01 c1 3d 61 36 ab bd 68 87 7a bd d4 58 b4 3c
       0.09424021 -0.08359981 -0.06116429 0.022015013
000160 cc 6f 20 be 25 eb 8c bd 1a 96 6e bd b9 f0 39 be
       -0.15667647 -0.06880788 -0.058248617 -0.18158235
000170 5e 98 fe bd d5 78 0c bc 09 0f 99 bd 53 ff 94 bd
       -0.124314055 -0.0085737305 -0.07473571 -0.07275262
000180 2e 83 d6 bd 86 a2 85 3d 98 dd 74 bd 85 64 67 3c
       -0.10474239 0.065251395 -0.05978164 0.014123087
000190 51 1b c9 3c 5e 9b 98 3c 49 6e 51 3b 5b 8e 12 bd
       0.024549158 0.018628772 0.0031956604 -0.035780292
0001a0 2c f7 f3 bd ef 59 9f 3c de d7 22 be 25 f0 91 bd
       -0.11912379 0.019452063 -0.1590266 -0.07125882
0001b0 ae 34 07 be 34 d9 b3 bd e2 15 0b 3d 6e 86 fc 3d
       -0.1320369 -0.087816626 0.033956416 0.12330328
0001c0 dd 5a 82 bd df 61 a1 bd bb 49 96 3d 2e fa d6 bc
       -0.06364987 -0.078799956 0.07338282 -0.026242342
0001d0 f6 f5 2b be 50 f7 43 bd 17 76 e5 bd 06 86 2a bd
       -0.16793045 -0.047843277 -0.112041645 -0.04163172
0001e0 44 03 1c be 0c 6e 27 be e9 45 41 be 02 f1 06 bd
       -0.1523562 -0.16350573 -0.18874325 -0.032944687
0001f0 88 63 a3 bc 10 25 b7 bd d3 49 8f 3d 3a 57 74 3c
       -0.019944921 -0.08942616 0.06996503 0.014913375
000200 38 92 dd bd 62 df b8 3b 8d 36 01 be 12 7d 00 be
       -0.10818905 0.0056418637 -0.12618466 -0.1254771
000210 a3 5f 9d bd 63 a8 35 bb 02 94 6c 3d dd 34 23 be
       -0.07684257 -0.0027718775 0.05775834 -0.15938134
000220 17 10 23 bd 56 b2 8a bc 27 78 9e 3d 33 05 99 bd
       -0.039810266 -0.01693074 0.07737761 -0.07471695
000230 e5 0e ec bd ef 1f be bc 6d 2f e1 bb 15 be 2b 3d
       -0.115262784 -0.023208586 -0.0068721087 0.041929323
000240 8b 0f e0 3d eb 3c de bd e8 7d 88 3c 3c 3b bc bd
       0.109404646 -0.10851463 0.0166616 -0.091909856
000250 a5 6d d7 bc bd 3c b5 bd f7 04 8f bd 84 0b 92 bd
       -0.0262974 -0.088494755 -0.06983369 -0.07131103
000260 48 27 de 3d 1d 7a 1e be 87 ce 8d bd 1c 06 38 3d
       0.10847336 -0.1547627 -0.069241576 0.0449277
000270 5d e7 a3 bd b1 62 2c bc 8d bf 25 3c d0 67 ed bc
       -0.080031134 -0.010521577 0.01011647 -0.028980166
000280 cc 9c 17 be 74 6b 33 bc da 00 6c bd 6c d8 65 be
       -0.14805907 -0.010950912 -0.057618 -0.2244584
000290 5d 58 e1 3c d7 4d 9d bb 9d b5 d6 3d c3 10 d9 bd
       0.027507955 -0.004800539 0.10483859 -0.105989
0002a0 e6 06 20 be 1a 77 7d 3c 0e b8 63 bc a5 8e 7f be
       -0.15627632 0.015470291 -0.0138988625 -0.24956758
0002b0 5e d6 9c bd 65 f7 11 be 02 33 62 bb 5d ce 73 bd
       -0.07658075 -0.1425453 -0.0034515266 -0.059522975
0002c0 bc 8e 13 bd 4b 45 38 be 90 24 dd bd 2a 1f c2 bd
       -0.036024794 -0.17995183 -0.10797989 -0.094786
0002d0 ef 2c 9f bc 5b ca 94 3c 9a 37 da 3c 3c 26 42 3e
       -0.019430606 0.018162897 0.026637841 0.18959898
0002e0 e7 aa 87 bd 09 47 ae 3d ca 4f 23 3d 30 89 bd bd
       -0.06624394 0.08509643 0.039871015 -0.09254682
0002f0 32 60 2f be 68 1b 8b 3c 41 de 61 3d 64 28 03 bd
       -0.1712654 0.016980842 0.0551436 -0.03202094
000300 e4 8e 89 bd 89 cb c3 bd 1e d5 50 be 32 84 7f 3c
       -0.06716707 -0.095603056 -0.20393798 0.015595483
000310 2f 94 d0 bd f7 44 f3 3b b2 ed 43 3d 18 14 17 be
       -0.10184514 0.0074239927 0.047834106 -0.14753759
000320 05 bb 78 bd 80 01 bf bd 38 3d 5c 3c ff c6 91 3d
       -0.06072523 -0.09326458 0.01344233 0.071180336
000330 83 48 68 bd 51 9a 35 be c0 40 d8 bd 97 23 ac 3d
       -0.056709778 -0.17734648 -0.10559225 0.08405226
000340 e5 52 67 3d 55 de 17 bc 18 cb 9c 3b 62 b9 d3 bd
       0.05647554 -0.009269317 0.004784953 -0.10338093
000350 b1 99 49 be c0 c0 25 3d 01 0b c4 3c 6e 1f 2c bd
       -0.19687535 0.040467024 0.023931028 -0.04202216
000360 6f 1d fd 3d 89 0d f4 bd 78 01 b2 3c b7 23 50 be
       0.1235913 -0.11916644 0.021729216 -0.20326124
000370 50 ce a1 bc de fc 03 be 2b 2f 2b 3c 2f 60 30 3d
       -0.019751698 -0.1288943 0.010448257 0.043060478
000380 85 48 4f 3d 10 5a 9c bd 4b 59 bd 3c 86 42 71 bd
       0.05060627 -0.076343656 0.023113867 -0.058901332
000390 aa 98 d9 bc 48 3e 6a be 06 13 02 bd 3b 61 2a be
       -0.026562054 -0.22875321 -0.031756423 -0.16638653
0003a0 af e7 10 bd 12 de 89 3d d6 ca eb bc 36 a3 40 bd
       -0.0353772 0.0673181 -0.028783243 -0.04703065
0003b0 be 1b 18 bd f9 e4 10 3c c2 be a3 3c fe 30 00 bd
       -0.037135832 0.008843654 0.019988421 -0.031296723
0003c0 ee 2a c5 3c 3d 0a 20 be a5 2b f1 bc 92 4b fe bc
       0.024068322 -0.15628906 -0.029439757 -0.031041894
0003d0 22 5a 61 be e1 6b 17 bd 9e fc d0 3d 2a 1b 30 be
       -0.22007039 -0.036968116 0.10204433 -0.17197862
0003e0 ff 5b 65 3d f8 65 02 bd f5 b3 16 be fa ec 7d 3d
       0.055995937 -0.031835526 -0.14717086 0.061993577
0003f0 00 9c 83 bd a8 3c e9 bb 2c c0 eb bd d1 7a 73 3d
       -0.06426239 -0.0071178265 -0.11511263 0.0594433

fc2.bias f4 [128]
000000 d7 1b 82 bc e2 6b 04 3e 6c 52 23 be 72 18 8d be
       -0.015882416 0.12931779 -0.1594941 -0.27557713
000010 91 e9 a3 3e 89 84 bb be d0 48 58 be 14 1f 7c bd
       0.32014135 -0.36624554 -0.21121526 -0.061553076
000020 78 19 29 be c1 5b a7 be cc 44 f1 bd 3d 01 44 3d
       -0.16513622 -0.3268719 -0.117807 0.047852743
000030 aa 84 c1 be 26 55 90 3c 30 e0 69 3d a6 70 00 be
       -0.37796527 0.017618727 0.057098567 -0.12542972
000040 2a cc 52 be fb 46 ca 3d cf 8a e3 bb 82 9c 5f bd
       -0.20585695 0.0987682 -0.0069440375 -0.054592617
000050 1c c3 26 bd 18 df c2 bd 54 cf 30 3d 82 07 d6 3d
       -0.040713415 -0.09515208 0.043166474 0.10450651
000060 97 8e 82 bd b9 8b 6c 3e af 25 9c bc dd 90 4f 3e
       -0.06374853 0.23100175 -0.019060938 0.20270105
000070 dd da 93 be 51 0d 89 be 24 75 cf bd a4 e4 77 be
       -0.28877917 -0.26767972 -0.10129765 -0.24208313
000080 7f 9c f3 3c 81 f9 5e be a9 96 9e bd d5 8d 9f be
       0.02973771 -0.21774866 -0.0774358 -0.31162897
000090 cb e8 3e bf 45 e2 ab be ff 3a e1 bd 45 99 8c 3b
       -0.74573964 -0.33571067 -0.10997581 0.004290732
0000a0 cf 34 24 be ab be 32 bd 0e 7c a3 be 58 b6 09 be
       -0.1603577 -0.043638866 -0.31930584 -0.13448465
0000b0 fc aa 7c bd 0c 40 80 be bf 15 00 3e cb e7 91 be
       -0.0616865 -0.25048864 0.12508295 -0.28497157
0000c0 06 7b b9 bd 9f 08 04 bf 66 fd 22 bc 7d 5b 12 bd
       -0.09056668 -0.51575655 -0.00994811 -0.03573178
0000d0 73 97 c5 be ad 90 f8 bd 9e 66 27 3e 23 82 c5 bd
       -0.3859211 -0.1213697 0.16347739 -0.09643962
0000e0 2e 02 4a 3e 1a 53 e4 be c1 c9 37 bd 97 6e 98 be
       0.19727394 -0.4459465 -0.044870142 -0.29771873
0000f0 c8 d3 8d be eb 5c be bd 5d 31 2d bf d1 ae 98 be
       -0.2770064 -0.092950664 -0.6765345 -0.29820874
000100 63 29 33 bf 32 c7 97 be 6e aa 8b bd 84 66 8e be
       -0.69985026 -0.2964416 -0.06819616 -0.27812588
000110 21 1b b2 be ce 97 6a 3d ba 01 49 3c c2 5b bd bd
       -0.34786323 0.05727368 0.012268478 -0.09246017
000120 9f 16 3c bf 83 7c 8b be 0f 83 55 bd b2 69 3f bd
       -0.7347202 -0.27243432 -0.05212694 -0.04673166
000130 e4 ec bb be f1 9d 0d 3d 91 bd 08 bf e8 08 e7 bd
       -0.3670417 0.034574453 -0.53414255 -0.112809956
000140 ae bf 0a be c4 4e fc be a7 a9 49 be 3c 5e fd bd
       -0.13549682 -0.49278843 -0.19693623 -0.123714894
000150 44 93 ee be 9b 9f cc be 68 5b 83 be 57 f8 b0 bc
       -0.4659673 -0.3996552 -0.25655675 -0.021602793
000160 12 f5 47 bc ff c1 c9 be f4 f7 84 bd fe b0 b7 be
       -0.012204425 -0.3940582 -0.06492606 -0.35877222
000170 d4 cc 84 3e 3f af d6 bd cb 8c a2 bd a3 67 45 bd
       0.2593752 -0.10482644 -0.079370104 -0.04819454
000180 6d 7e 99 be 71 c8 87 be 92 81 90 be 44 a7 ab be
       -0.29979268 -0.26520112 -0.28223854 -0.3352605
000190 3b 7e 1d 3e 51 cb d6 bd 6f d6 73 3e 71 6a d0 bc
       0.15380184 -0.10487998 0.23812269 -0.02544138
0001a0 ec 78 38 3e 01 35 49 3e 69 13 fd be 2c f8 a1 bd
       0.18014878 0.19649126 -0.4942887 -0.07908663
0001b0 d6 14 6c be db 32 be be a8 48 ae bd 39 13 2b bf
       -0.23054823 -0.37148175 -0.08509952 -0.66826206
0001c0 d1 0e b1 3e 57 7d e3 bd ac ee 78 bb 32 ce 70 bd
       0.34581617 -0.11107891 -0.0037984056 -0.058790393
0001d0 fe 7f ac be bf bd 76 be eb f6 18 bd 43 96 4f 3d
       -0.336914 -0.2409582 -0.037344854 0.05068041
0001e0 71 ea 62 be 96 2d 83 bd 0e e5 c2 be 1a a7 0f be
       -0.22159745 -0.06405179 -0.3806538 -0.14028588
0001f0 f1 ff b0 bd e0 80 89 be de 03 f4 bc fb c6 c8 bc
       -0.08642567 -0.26856136 -0.029787 -0.024508944

fc3.weight f4 [2, 128]
000000 dc 3c b9 3b c9 f9 a8 3d 4b e3 e2 be e7 aa 8b bd
       0.005653007 0.08250768 -0.44314036 -0.068197064
000010 6b 88 fe 3d a6 9a 9a bb db f2 c1 bc 57 a4 61 bb
       0.124283634 -0.0047181426 -0.023675373 -0.003443023
000020 50 68 f8 3c 91 2d 2a bc d7 e4 ba 3d 5e 1a e8 3d
       0.030323178 -0.01038684 0.09125679 0.11333154
000030 41 39 b0 bd 10 3e 93 3d 54 62 33 bd 51 a7 68 3d
       -0.0860467 0.07189572 -0.043794945 0.05680019
000040 a5 e0 08 3f 0b 7b a5 3d 2a 75 83 bc cc 4f 72 3d
       0.5346778 0.08080109 -0.01604708 0.05915813
000050 58 22 f7 3c fc 08 c9 3d c5 38 d5 3e e2 3d 11 3e
       0.030167744 0.09816167 0.41644874 0.14183763
000060 b7 5a 78 3c 7d 81 8a 3e 0e aa 01 be f6 a4 29 3d
       0.015158347 0.27051917 -0.12662527 0.041417085
000070 70 b5 b9 bd 77 a6 3f 3e d2 0f b9 bb 95 bc 88 3e
       -0.090678096 0.18715845 -0.005647638 0.26706377
000080 b6 22 c9 be cc 13 a9 bd a2 e3 22 bb 73 54 79 bd
       -0.39284295 -0.08255729 -0.0024854918 -0.060871553
000090 e5 20 3b 3d e4 ed ae 3d bb 0b 94 be bf b4 f0 3d
       0.045685668 0.08541468 -0.289152 0.117532246
0000a0 d9 30 e6 3d 5a ff a6 3d 75 8a 25 be 65 21 81 bc
       0.11239786 0.08154173 -0.16166098 -0.015762994
0000b0 5a 8e 33 3b 1a f8 01 bd d1 35 5e bc 32 87 a5 bd
       0.002739808 -0.03173075 -0.0135626355 -0.08082427
0000c0 ad 6e 85 bc 25 21 d9 bd 5d d6 f6 bd 44 19 b0 bd
       -0.016288126 -0.10602025 -0.12052605 -0.08598569
0000d0 d9 4a cb 3d c0 ef 83 bd b6 57 37 3d 14 72 23 bc
       0.099263854 -0.06442213 0.044761382 -0.009975929
0000e0 ae d3 c0 3e 16 a6 38 bb 9d a5 4a bc ac 7d 09 3e
       0.376615 -0.0028175167 -0.012368587 0.13426846
0000f0 d7 84 fa bd ea 76 82 bd 42 92 83 3e 43 4c 9e bd
       -0.122323684 -0.06370337 0.25697523 -0.077293895
000100 92 18 dc 3d f8 98 f9 3d d5 8d c9 bc 74 1b 65 bd
       0.10746874 0.121873796 -0.024603764 -0.055934384
000110 5c d8 08 be 72 42 96 bd 4b c9 7b be b1 18 0f 3e
       -0.13363785 -0.07336892 -0.24588506 0.13974263
000120 53 40 23 bd 9e 4a 31 bd 3f ae 7a 3c 97 7d f0 3c
       -0.039856266 -0.04328405 0.015300333 0.02935676
000130 30 ed 86 bd 09 85 1b 3e 2e 28 85 be ca 13 4e 3b
       -0.06588209 0.15187468 -0.26007217 0.00314449
000140 70 99 ae 3c 76 0b a8 3d 1e 41 6e 3c 3e 82 f1 3b
       0.0213134 0.08205311 0.014541892 0.0073702624
000150 8f a9 82 3d 71 ba 30 be c7 cc 65 be 8e 44 11 3d
       0.06379997 -0.17258622 -0.22441398 0.03546577
000160 99 38 a6 39 0f f6 cd bd f9 cf 9f bd 6c 4b b4 3d
       0.00031704156 -0.100566976 -0.078033395 0.08803448
000170 bb 9a ce 3d 3d 8f a4 3a dc 1e 8d 3d bd 0c 3e bb
       0.10088106 0.0012554895 0.068906516 -0.0028999292
000180 71 a9 01 bd bc 21 c8 3d 96 93 75 3b a5 16 a8 3a
       -0.031655733 0.09772059 0.0037472001 0.0012824131
000190 ad f2 93 3e 3d f6 c4 bc 93 33 a8 3b f8 97 5f ba
       0.28896084 -0.024043197 0.0051331013 -0.000852942
0001a0 d3 da 8b be ab 23 b3 3e 18 85 8b 3e ff 2b 0f 3c
       -0.27315387 0.3498815 0.2724998 0.008738517
0001b0 c8 ab 3a be 06 7d 01 3e d9 6a 31 3e 9f 7f 3d be
       -0.18229592 0.12645349 0.17325915 -0.18505715
0001c0 45 11 50 3e 39 ac 3c 3d dd e2 87 3d 45 86 9f 3c
       0.20319088 0.04606268 0.066350676 0.019473204
0001d0 cf 5a ea bd e5 3a 47 3e 8a 63 1e 3e e7 96 87 be
       -0.114431016 0.1945606 0.15467659 -0.26482317
0001e0 8c 3c 66 be 66 98 54 bc bc 95 c2 3b 12 53 ad 3e
       -0.22484034 -0.012975788 0.00593826 0.3385244
0001f0 cc 84 51 3e 0f 91 cb 3d c4 e9 03 3e 73 23 8f 3d
       0.20460814 0.09939777 0.12882143 0.06989183
000200 1e bd 31 bd be 9d b3 3e a8 5f 25 bf 66 59 f4 bd
       -0.043393247 0.35081285 -0.64599085 -0.11931114
000210 18 aa bd be 08 23 f1 be 20 29 79 3e 09 f6 07 3f
       -0.37043834 -0.4709704 0.24332094 0.53109795
000220 a7 be 1a 3d ab 8e 04 bf 22 ea 81 bc f6 f4 07 3d
       0.037779476 -0.51780194 -0.015858714 0.033192597
000230 e5 a4 2c be 37 6f a2 3e f1 e6 9b 3e 50 2a 98 3d
       -0.16859777 0.31725475 0.30449632 0.074299455
000240 1a c2 53 be b6 b2 d3 3e 25 5a 2c 3d 61 60 18 bc
       -0.20679513 0.41347283 0.042078156 -0.009300322
000250 7e 07 ad 3c aa 57 a7 3e d4 12 e5 3e 8f 64 94 be
       0.021121737 0.3268407 0.44740927 -0.2898297
000260 d1 93 30 3e 86 46 e7 3e 47 12 79 3e 36 55 45 bf
       0.17243887 0.45170993 0.24323379 -0.77083147
000270 ad 31 23 bd 36 db e1 3d b5 26 2f 3e 71 bb 0b be
       -0.039842296 0.11028139 0.1710461 -0.13645722
000280 50 fc c4 be 74 28 84 3e 32 42 52 3d f5 61 72 3e
       -0.3847375 0.25812113 0.05133266 0.2367018
000290 b5 72 6d be 4f 1e 77 3e 3e 7c b6 be 8e 9a a5 3b
       -0.23188289 0.24132656 -0.35641664 0.0050538247
0002a0 bd 5c 13 3f 9f e4 75 be 53 82 0e be 34 89 a8 bc
       0.5756338 -0.24012993 -0.13916902 -0.020573236
0002b0 69 e5 d1 3d 09 2e 0f 3e 9f cd b5 3e bc 73 b7 bd
       0.10248835 0.13982405 0.3550844 -0.089576215
0002c0 a6 b0 d0 3c c6 2e c8 be 81 8f 96 be 5c ab 81 3d
       0.025474858 -0.39098185 -0.2940636 0.06331512
0002d0 15 70 20 3e 80 33 83 3d 4a 7c 28 3f 39 8c b9 3c
       0.15667756 0.06406307 0.6581465 0.022649871
0002e0 52 ed b1 3d cc e3 ba be 3c 0e 11 3b be 24 16 3e
       0.086878434 -0.3650192 0.0022133728 0.14662454
0002f0 c1 52 90 b9 09 55 9c 3e 6d 5d 3d 3d bc 2c 86 be
       -0.00027527477 0.30533627 0.046231676 -0.26206005
000300 5a 2b b9 3d 7d ff d0 be 40 10 e3 be 2f 22 2a 3e
       0.09041472 -0.40819922 -0.44348335 0.16614603
000310 0e 21 63 3e 71 bc d7 bd 4e b9 bd 3e 68 c0 ad be
       0.22180578 -0.10533989 0.3705544 -0.33935857
000320 36 2a b5 be de 8d 51 3e 86 13 0c bc 30 71 07 3d
       -0.35383767 0.20464274 -0.008549577 0.03306693
000330 6c f1 c9 be f4 96 fe 3e af 96 11 3e b9 5f a8 be
       -0.39442003 0.49724543 0.14217637 -0.3288553
000340 86 89 cf 3e f0 7f a3 3e 33 c8 f8 b7 40 d3 ba 3b
       0.4053461 0.31933546 -2.9657129e-05 0.0057014525
000350 9c bf 5c be 2a b9 15 be 31 fa e8 bd 38 5b 6c bb
       -0.21557468 -0.14621416 -0.11375845 -0.0036065113
000360 62 2f 3f 3c e7 94 70 be 8f 6b 27 3f d5 17 b6 3d
       0.011669012 -0.23494302 0.65398496 0.08891264
000370 b2 39 86 3c b5 57 2b 3d c8 97 b7 3d dc 06 0c 3d
       0.016384933 0.04183169 0.08964497 0.03418623
000380 88 e5 87 3e cf 45 3f bd 63 39 e6 be bb eb 14 bf
       0.26542306 -0.046697434 -0.44965658 -0.58172196
000390 8e 7d fb 3c e1 67 45 bd 6d 06 b3 3e aa d5 a6 39
       0.030699518 -0.04819477 0.3496584 0.0003182118
0003a0 e9 cb 3e be 82 e9 b8 3d 74 4e 6e be 49 93 af 3c
       -0.18632473 0.09028913 -0.23272115 0.021432536
0003b0 91 69 8a 3d 2e a9 6b 3e 04 06 c8 3e ef 30 92 be
       0.067584164 0.23013756 0.3906709 -0.28552958
0003c0 0d 49 9a 3e ff ae 60 bd 99 4f 68 3c a6 10 21 be
       0.30133858 -0.05485439 0.014179134 -0.15729007
0003d0 f5 5e 2b 3f e2 3e ae 3d 55 d4 2d bd fd 04 cb bd
       0.6694177 0.08508088 -0.042438824 -0.09913061
0003e0 a6 8f 29 3c 6d 48 8e 3c ff dd 3e be d5 a2 c7 be
       0.01034919 0.01736852 -0.18639372 -0.38991418
0003f0 49 70 84 3e 3a 10 b3 3e a6 ba c0 bd fe 8f 63 3d
       0.25866917 0.34973317 -0.094106 0.055557244

fc3.bias f4 [2]
000000 38 09 0b be c3 f2 96 3f
       -0.13577735 1.1792835
